Parking Environment/Assets/Models/90deg_3stacked_V2.onnx (onnx, 597702 bytes, 13 tensors)

network_body.observation_encoder.processors.0.normalizer.running_mean f4 [26]
00000000: 2008 da3e 90db 363f fad8 083f 799c 423f
00000010: 31d6 e03d aca1 183f 7633 ca3e 3582 383f
00000020: 0781 c73d dc5c fd3e 94a9 523e cf97 2f3f
00000030: fef4 053e 4d02 e03e 8063 6b3e 6eea 3d3f
00000040: acb2 823d dffe d63e c6bf 523f 0bc6 723f
00000050: ce9b ba3e d1af 363f f7db 6a3f c1b4 773f
00000060: f4db 6a3f c1b4 773f
0.42584324 0.71428776 0.5345608 0.7602001 0.10978354 0.5962169 0.39492387 0.7207368
0.09741407 0.4948491 0.20572501 0.68591017 0.13081738 0.43751755 0.22987175 0.74185836
0.06381735 0.41991326 0.82323873 0.9483344 0.36446995 0.71362025 0.9174189 0.96760184
0.9174187 0.96760184

network_body.observation_encoder.processors.1.normalizer.running_mean f4 [3]
00000000: bb2c a33e 806c a33e 95a8 a33e
0.31870064 0.31918716 0.31964555

network_body._body_endoder.seq_layers.0.weight f4 [264, 29]
00000000: 3f94 d7be ab31 0b3e 7e19 8c3d 3c95 593e
00000010: 4579 4c3b f157 0f3e 0d03 373d 8254 a3bd
00000020: 5274 dcbd b994 27bf 93cc 91be edaa 223e
00000030: 2f72 9e3e c8a0 f83c 310f 213e 265f cabd
00000040: f95b 503e c1fd 8abc 78b6 26be 2d55 ef3d
00000050: c79c 823e 61b6 b4bd 4450 543e 7f87 ef3d
00000060: a618 0fbd a407 e0bd b1e7 5e3e bed9 38be
00000070: d25e 813d e355 b43c 2282 1cbe 7330 b43e
00000080: 4ac3 683c d2b2 5e3c 7b18 62be 6c22 5f3d
00000090: a479 2abe 26bd cc3d 26e9 01bf 2072 d8bd
000000a0: 0e61 15be 210b b73d c08d 6eba 4c0d 6ebd
000000b0: 41ec 313e d400 743d fcb8 4d3c 18a0 053c
000000c0: 3862 c83d 622a 363e 0aa7 7c3d 95de 8a3e
000000d0: 3b2d 7bbe 69f2 80be 860d e23e 8438 db3c
000000e0: cc83 7d3e 6aff 13be b76a 88be 3cfd 28be
000000f0: 2ec7 ad3e 5427 ec3d 8cc4 793e 2bc1 86be
00000100: bd7c 81be 207d 7fbe c99d c23e cf83 ce3b
00000110: 3f34 adbd 4196 a63e 9a9b d7bd c2e3 35be
00000120: f963 3a3e 437f 803e 9d37 7f3d 46eb 58be
00000130: 52ea 57be d358 d23c 8d3b 953e ce4d b43e
00000140: 03bc 293d 1ba8 8cbe 7b35 3abe 193c 033e
00000150: 7b3a 873e 00f4 a43e 2be5 60be 4dfa e8be
00000160: 0b8f 333d 5a6b 503e 4b59 563d 9956 acbd
00000170: 5ae9 e33a dcfa afbd af5d 62be d424 8fbe
00000180: 07a0 c2bd 40b1 41bd a9d5 2ebd 36e4 c8bd
00000190: aabd c9bd 0c60 61be 23d0 ccbd 01d4 cbbd
000001a0: 072c d3bd 78fe 5cbd badb 1b3e c5dc 573e
000001b0: 46e7 ed3d 009e a4bd 4267 02be 1aa0 a9bc
000001c0: efdd c7bb a134 233d e735 27be d294 893e
000001d0: dddf 2c3e 01df 533e 9e66 f3bc 797d cb3d
000001e0: 9f36 9a3d ec56 a4bd 8fb7 bbbe dfb9 fbbd
000001f0: 8d9a 53bd 06d4 4ebe 89b6 d8bd b5f7 113f
00000200: 4237 5b3e 75eb c3bc fd56 9d3e f7b1 71bd
00000210: 483c 393c 3656 7cbd 482f c0be 2bd6 e3bd
00000220: 47e5 c23e 0473 713e 18bf 20be f68c 633e
00000230: c570 7c3e 5966 0cbd f88e fdbb 589b 553e
00000240: 61e3 67be 8bfd dabe 7183 3f3e 7b19 c73d
00000250: 869a a9bb 4e11 a8bd e99b 503e b332 b93e
00000260: 7cab 83be 7da6 353c c946 c8be e5d5 833d
00000270: 2a97 213e ebe5 7c3d 9ee7 413e fede f7bd
00000280: de2b 34be 2469 4dbe 8022 7a3d 59f5 023c
00000290: 9eed 91be 7d31 46be 1c1c 913c b145 deb9
000002a0: c14f eebb 4abc cdbc 19a3 c93a a12a 3e3d
000002b0: f9dc 083d 65dd 1ebd de86 79bd ec67 0bbe
000002c0: 9173 45be f976 93bd cab4 7f3b fc19 60be
000002d0: 09aa 863e da03 21be fc48 553c 2c11 073d
000002e0: b10a 903e 8172 49be cfe5 903e 3823 f2bd
000002f0: ac62 60bc 15f3 e93d 685c 1abe 89db 5b3d
00000300: 2a22 84bd aef0 3fbe 4bae 073e dff4 2a3e
00000310: 7979 b13e 1988 013e b0ae 83bd c3c9 c13e
00000320: 6263 b5be 6655 25be 2b7a 04bf c9ff a6be
00000330: 39b3 0e3e b7f9 8a3e 1d32 c9be 4a8a 2b3e
00000340: 61c7 b13d 8867 7b3e 468d c0bd 010b 9d3d
00000350: 6fd6 203d b192 14be e0b0 2a3e 0493 40be
00000360: 1244 f6be 3b62 11be a652 94bd c6c7 8fbe
00000370: 3dda ab3e d4e5 64bd e586 e53d 8db9 0b3e
00000380: 704c ba3d 876e 73be 8057 da3c cc34 d13c
00000390: ea32 f6bd 3253 c4bb 2f10 e43d 8366 0f3f
000003a0: 39b8 60bd 3c78 7d3e 8ae9 a6be e3b2 1abe
000003b0: 75ba 3f3e f8c3 e93d 5e89 123c 96b7 95be
000003c0: 5240 c73e 3d3a aebe 9709 92bd 1c93 123e
000003d0: aa75 943e 316d b23d 5cbf bb3e 8a26 48bd
000003e0: 5a75 6fbe 0e33 b23e d1a3 f63d 733d 443e
000003f0: 5335 8f3e 0f8e b1be ce29 553e 0fa3 083e
-0.4210529 0.13593166 0.068408 0.21248335 0.0031200212 0.1399839 0.044680644 -0.07975103
-0.10764374 -0.6546131 -0.2847639 0.15885516 0.3094649 0.030350104 0.15728451 -0.098814294
0.20347585 -0.016966702 -0.16280544 0.11686168 0.25510237 -0.088238485 0.20733744 0.11695766
-0.034935616 -0.10938957 0.21768071 -0.18051812 0.06316914 0.02201361 -0.15284017 0.35193214
0.014206717 0.013592439 -0.22079651 0.054476187 -0.16647965 0.09997015 -0.5074638 -0.105686426
-0.14587805 0.089376695 -0.0009100102 -0.05811815 0.1737528 0.059571102 0.012556311 0.008155845
0.09784359 0.17789605 0.06168274 0.27122942 -0.24528973 -0.25184944 0.44150943 0.026760347
0.24757308 -0.14452901 -0.26643917 -0.16502851 0.33941025 0.11530939 0.24391383 -0.2631925
-0.2529048 -0.24950075 0.38011006 0.006302334 -0.08457231 0.3253651 -0.105277255 -0.17762664
0.18202199 0.25097093 0.062308896 -0.211835 -0.2108548 0.02567712 0.29146996 0.3521561
0.041439068 -0.27472004 -0.18184464 0.12815894 0.26411805 0.32217407 -0.2196242 -0.45503464
0.04383759 0.20353451 0.05233125 -0.08414955 0.001738827 -0.085927695 -0.2210605 -0.27957785
-0.09503179 -0.04728818 -0.04268423 -0.09809153 -0.09850629 -0.22009295 -0.100006364 -0.09952546
-0.10311132 -0.053953618 0.15220538 0.2108031 0.116163775 -0.080379486 -0.12734702 -0.020706225
-0.0060994546 0.039845113 -0.16329156 0.26871353 0.16882272 0.20690538 -0.029712018 0.099360414
0.075299494 -0.080243915 -0.36663482 -0.122913115 -0.051661063 -0.20198068 -0.10581691 0.57018596
0.21407798 -0.023915986 0.3073043 -0.05900761 0.011305876 -0.061605655 -0.37536073 -0.11124834
0.3806555 0.23579031 -0.15697896 0.22221741 0.24652393 -0.034277294 -0.0077379905 0.2086004
-0.22645332 -0.42771563 0.18702485 0.09721657 -0.0051758913 -0.082064256 0.20371975 0.36171493
-0.2571677 0.011087057 -0.39116505 0.064372815 0.15780321 0.061742704 0.18936011 -0.12103079
-0.17594859 -0.20059639 0.061068058 0.007993066 -0.285016 -0.19354816 0.017713599 -0.00042395064
-0.007272691 -0.025114197 0.001538369 0.046427373 0.03341386 -0.038785357 -0.060919635 -0.13613862
-0.19282366 -0.072004266 0.003901767 -0.21884912 0.26301602 -0.15724126 0.013017889 0.03297536
0.28133157 -0.19672586 0.2830033 -0.11823124 -0.0136954 0.11423317 -0.15074313 0.053676162
-0.06451829 -0.18744156 0.13250081 0.16694973 0.3466299 0.12649573 -0.06429803 0.37849244
-0.35427386 -0.16145858 -0.51748914 -0.32617024 0.13935556 0.27143642 -0.39296046 0.16751972
0.08680607 0.24551213 -0.09401946 0.076681145 0.039267 -0.14509083 0.16669035 -0.18806082
-0.4809881 -0.14197628 -0.072423264 -0.28082103 0.3356494 -0.055883244 0.1120737 0.13645001
0.090966105 -0.23772632 0.026653051 0.02553787 -0.1202143 -0.005991363 0.11135899 0.56015795
-0.05486319 0.24752897 -0.3260005 -0.15107302 0.18723471 0.11414331 0.008943884 -0.29241627
0.3891626 -0.34028807 -0.07130735 0.1431393 0.2899602 0.08712233 0.36669433 -0.04886488
-0.2338461 0.34804577 0.12042964 0.19164066 0.2797037 -0.34678695 0.20816728 0.13343452

network_body._body_endoder.seq_layers.0.bias f4 [264]
00000000: 740d 213d 1b88 32bd bd29 ffbd 6c6f 61bd
00000010: 8942 73bd 2b1e 993a aa10 edbc 933d 3f3d
00000020: 5271 08be 35df a03d 069d e9bd e044 edbb
00000030: 5661 25bb 5b0c 17be 209e 25be 1a72 34bd
00000040: 147f 2ebc 0ef0 5a3d b84c 99bd beb7 47bd
00000050: 5e4d d83b b41f 0dbe 1aac 12bb b026 95bd
00000060: 83a5 a9bd 646b 5dbd 5b4f 0bbd fa7f 09be
00000070: 0777 64bd 359a 73bd 99a3 c8bc f304 c9bd
00000080: 2c51 453d 4b4c 9ebc e835 febb c475 6cbc
00000090: 550f 9e3c 15da bebd 691e 37bd 404a 1cbe
000000a0: a05c df3c 66c1 1dbe 591d a6bd 2833 9abb
000000b0: ff6c bfbd d4f9 7fbd a807 53bd fe35 e83c
000000c0: a8ae bfbd e201 26bd da5f 123d 3283 4bbe
000000d0: a5f0 4bbd 2175 85bd 8ab2 bdbd 996e 4d3c
000000e0: 879e dcbd 41bb 7e3d a5ed 8abd 7286 90bd
000000f0: ba6e b6bc e4ab 72bd 09cd f1bc 5857 b0bc
00000100: bc5a e9bd ccdf b8bd f995 a9bc 0af1 abbc
00000110: 2d89 c0bc 0f27 f9bd c74c 20be 01db a4bd
00000120: bb0b b9bd fe91 1ebc c71d dabd ff29 aebd
00000130: a7b1 70bd cbc1 7a3d 4a32 82bc 71f0 06be
00000140: ff76 23bd 01e4 043c f4a9 86bd 0f4c 48bc
00000150: dd9b d93a 2458 99bb cf5e f8bd efba a83a
00000160: 1b4e b63c b0ef 39be 1123 38bd 3b83 7a39
00000170: 3071 0abd 2fe0 46bc 9be3 c53c 5670 06bd
00000180: 3be2 963c e90d ddbd 9383 e5bd f2ab b1bd
00000190: 0910 32bd 254a bbbd 7114 e43c 3c00 39ba
000001a0: e98b 7a3d d9ac 97bd 01fc 0abd cfd2 60bd
000001b0: ed7b c7bd c2b7 2dbe 98e6 8cbd 1a7b 083d
000001c0: 6fa9 96bd d742 c03c edbd 4c3b 3bab 65bd
000001d0: 451d 593d 41d1 59bd d3e8 57bb d4f1 35be
000001e0: e1e8 53bb f46f e63d 44ad 17bd cf56 d2ba
000001f0: e380 0a3d 19f0 bcbd 67b4 2f3c 5b28 36bd
00000200: 2210 95bc e348 5ebd f878 6ebd 82bc d0bc
00000210: 530c 30bd 04df bbbc 34cb edbc 2912 793d
00000220: e29d 0e3b ab2f a43d 8a7d abbc 45b3 15be
00000230: 9d2f cbbd 1a34 b9bd cb33 32be aec6 d6bd
00000240: 170c dfbd cbb5 94bd 1b9d c83c 52ee 12bc
00000250: f403 69bd be51 1abe 3d78 63bd f2fd afbd
00000260: f9d6 52bd f61c 9cbd 0a63 1bbd 0983 bdbd
00000270: a7cd e3bd 4f33 67be c7c0 c2bc a6ab d63d
00000280: df1f bdbd 3ab9 06bd 0c3c 3abd 2485 3fbc
00000290: 5279 60bd b0a7 88bd 2877 5b3c 99e0 9dbd
000002a0: f9ab 47bd a7db 513d 0e52 563d b709 89bd
000002b0: bcf8 ad3d c2bd 94b9 ea44 28bd adf2 13be
000002c0: 6b45 91bc 7747 f1bc cd49 1d3e 06e8 b5bc
000002d0: bcbc e0bd a744 3f3d 19ff a5bd c6b9 f5bc
000002e0: 2e23 853d 68fe 693d 693a 65bd 5711 97bd
000002f0: 0911 92bc 617d 1a3b 0360 d53b 3845 41bd
00000300: cef1 813d ffa1 e3bd 6b4c 943c e245 ddbd
00000310: d2ce 45be f1b1 1c3c 4963 85bd 139d 633b
00000320: d18b 193c 88e9 47be 0d17 603b cd36 fcbc
00000330: 5c55 2fbc 7861 c1bd 3935 5c3d cb1a 313d
00000340: c074 7d39 c7d5 2dbc 0ea7 e03c 69e7 a0bd
00000350: e65e f23a 7caf 86bd 88c1 54be 40ff f0bd
00000360: bb3f cabd 4b97 213c 3c6a 8c3d 74fb 07be
00000370: 5c4e 6bbd 4e8c 40bd 3469 16bd 00d9 80bd
00000380: b545 99bd 3d6b 123d 9b49 233d 9715 c1bd
00000390: f2de aebd 5d06 063d cdc5 65bd 619f fcbd
000003a0: c2e7 9dbe 5ae2 06bd a8ff a4bd 082c 4abd
000003b0: 84f7 1a3d 9953 fabb 91c2 53bd 7dcd 9bbb
000003c0: 7331 1f38 f079 23be d0ab afbd b366 debd
000003d0: 8b1e 16be 3c6d 99bc 5bbd 91bd ebaa c5bd
000003e0: 02e4 153e 9c6e 14bd 26c3 d5bd 5870 a0bd
000003f0: 7c92 1e3d 22e5 ecbd 0498 45bd 29c7 40bc
0.03931947 -0.04358683 -0.12459133 -0.0550379 -0.059389625 0.0011681964 -0.02893861 0.04668958
-0.13324478 0.07855073 -0.11406903 -0.0072408766 -0.0025235019 -0.14750807 -0.16173601 -0.04405413
-0.010650415 0.05345159 -0.07485336 -0.048759215 0.0066010198 -0.13781625 -0.0022380413 -0.0728277
-0.08283522 -0.054057494 -0.034011226 -0.13427725 -0.055777576 -0.059473235 -0.024492072 -0.09815397
0.048173115 -0.019323489 -0.007757891 -0.014432374 0.01929442 -0.093189396 -0.044706736 -0.15262699
0.027265847 -0.15405807 -0.08111066 -0.0047058053 -0.09346961 -0.062494114 -0.051520973 0.028346058
-0.09359485 -0.04052914 0.035735942 -0.19874266 -0.049790043 -0.06516481 -0.09262569 0.012538576
-0.10772424 0.062190298 -0.06783608 -0.070568934 -0.022269595 -0.05924596 -0.029516714 -0.021526024
-0.11394259 -0.09027061 -0.020701395 -0.02098896 -0.02350291 -0.12165653 -0.15654288 -0.08049584
-0.090354405 -0.009678362 -0.10650211 -0.08504104 -0.058763172 0.06121997 -0.01589312 -0.13177659
-0.039908405 0.008111001 -0.06575385 -0.012225165 0.0016602237 -0.0046796966 -0.12127458 0.0012873093
0.02225404 -0.1815784 -0.044955317 0.00023890745 -0.03379935 -0.0121384105 0.024156382 -0.032821976
0.018418422 -0.10793669 -0.112067364 -0.08675374 -0.043472324 -0.09145001 0.027841778 -0.0007057225
0.061168585 -0.07406015 -0.033931736 -0.054888543 -0.09740434 -0.1696463 -0.0687992 0.033320524
-0.07356536 0.023469372 0.0031241134 -0.0560715 0.05300643 -0.053178076 -0.003294517 -0.17768031
-0.0032334852 0.11251822 -0.037030473 -0.00160476 0.033814322 -0.092254825 0.010724164 -0.04447208
-0.01819617 -0.05426873 -0.058220834 -0.025480513 -0.042980503 -0.02293349 -0.029027559 0.060808334
0.0021761586 0.080169044 -0.020933885 -0.14619167 -0.09921191 -0.09043141 -0.1740257 -0.10487114
-0.10890978 -0.07261237 0.024488976 -0.008967953 -0.056888536 -0.15070245 -0.05553459 -0.08593358
-0.051474545 -0.07622711 -0.037936248 -0.092535086 -0.111232094 -0.22578166 -0.023773564 0.10481958
-0.092345946 -0.03289149 -0.04546742 -0.011689458 -0.0548032 -0.06672609 0.013395108 -0.07708854
-0.04874799 0.051234867 0.052324347 -0.06691306 0.08494708 -0.0002837014 -0.041081347 -0.14448042
-0.017733296 -0.029453022 0.15360184 -0.022205364 -0.10973498 0.04669633 -0.08105297 -0.02999581
0.065008506 0.057127386 -0.055963907 -0.07376354 -0.017830389 0.0023573267 0.0065116896 -0.047185153
0.06344949 -0.11114883 0.018102845 -0.10804345 -0.19317177 0.009563909 -0.06513078 0.0034731075
0.009371714 -0.19522679 0.0034193427 -0.03078785 -0.010701504 -0.09442419 0.053761695 0.043238442
0.00024171453 -0.0106100505 0.027423408 -0.07856638 0.0018491417 -0.0657644 -0.20776951 -0.11767435
-0.09875437 0.009862731 0.068562 -0.13279516 -0.057447776 -0.047008805 -0.036721423 -0.062913895
-0.07483999 0.0357468 0.039865118 -0.09427946 -0.08538617 0.032720912 -0.05609684 -0.123350866
-0.3084088 -0.03293071 -0.08056575 -0.049358398 0.037833706 -0.00763936 -0.051699225 -0.0047547207
3.7954607e-05 -0.15964484 -0.085776925 -0.10859432 -0.14660089 -0.018728845 -0.07116195 -0.09651741
0.1463776 -0.036238298 -0.10437612 -0.07833928 0.038713917 -0.11567141 -0.048240677 -0.0117662335

network_body._body_endoder.seq_layers.2.weight f4 [264, 264]
00000000: f1ed b6bd 6b37 13bd 0bd9 4c3d dedf 153d
00000010: 2397 02bd 1280 8e3c 0b17 463d 953b 693e
00000020: 4dbf 25bd 3b96 883d 666b 823d 8e10 e13d
00000030: a0c5 c03d 1302 24be af8c 463e 8e3e b63d
00000040: ceb1 0cbe 669c 57bc e9b3 cebb 4d7c 1b3e
00000050: 3614 813d 732a 4b3b 6a92 a3be 12a8 f23c
00000060: d16e ddbd eb37 6abd 4053 273d 7c37 533e
00000070: c3f9 c23d f951 dbbc 5ec8 703d 8980 e33c
00000080: 1a2a 8fbc 2c8b f5ba a209 3b3d 7a25 9b3d
00000090: 9976 533e 04fe 95bd bded 7abe e5d8 193e
000000a0: aba2 24bd a8b4 91bd 6e91 4b3d 9488 9a3d
000000b0: b24a 4b3c 1d6b a03d 27bd b83d ae8c 3a3c
000000c0: c31e 493e 39a3 ae3c 34c5 f4bd c09f d8bd
000000d0: 8320 d73d 79c7 91be bf15 833c 339a ac3e
000000e0: eceb 3cbd ad37 353e 8411 aabb 74d8 413e
000000f0: 3f6a 4e3d 1707 a33e 97f9 5abb b789 1c3e
00000100: 90ba 1c3d bc42 053d d86f 893b f946 24bd
00000110: f4cf 233d 4359 c33c 398a 3a3d 99c4 04bd
00000120: 161e 433e a041 183e 4843 6abc 301b b33d
00000130: fad2 403e cdbd 3f3d e51d fa3d a9e7 05bc
00000140: 43b1 1e3e 5a81 61bd f237 f13c ae60 ef3d
00000150: f558 bd3d e7eb 153d cb10 b8bd 2737 52be
00000160: 0b03 d53d 4e91 633d e51b 373e 18bf 423a
00000170: e1c9 4c3e 4845 88bb 0c57 653d 10a0 a73d
00000180: 00df 9cbc bf57 3fbc 99a2 66bd 5af1 d83d
00000190: 8a71 dbbc 07c1 32bd d0c2 473d 9dfc 31bd
000001a0: 13e0 fcba 4e8e 68bc b628 34be 1456 f6bd
000001b0: c4cf a5bd d05e 773c 09fc ec3d 0300 8ebc
000001c0: d897 acbd 00c0 25bd b3fb 153e 89e9 333e
000001d0: 03ca e0bc 75f8 a3bd c58a 1cbd 6776 d4bd
000001e0: dc8b 19bd ea4d a83d b65e a13c 883d 183e
000001f0: b265 17bc 096f d33c eb8e 463e 840c bbbc
00000200: 1e6c a63d bc10 d5bc adca 023e d7a2 353e
00000210: 771d 87bc a25e c3bd c166 153d 4736 0c3e
00000220: 3f66 a83e f9c7 93bc 2955 90bd 611d 243d
00000230: 2cb0 f6bc 86b9 c2bb 844d de3d be03 bdbd
00000240: 5a1d 683e f63b fabd e732 c53d 744d 02be
00000250: f267 e73c 965a 703d bdf7 143e 0261 0bbe
00000260: b026 2dbd d713 17bd 518a 753c fea0 4e3d
00000270: 7318 773d c300 cdbc b026 60bd 871f 13bd
00000280: e1b5 0fbd a786 173e 2722 d13d d79f ab3d
00000290: cfbe 193d 3dd3 2ebe 300f e43d 2aad 423d
000002a0: 4f30 f93d a9c4 153e acdf ad3e 1715 22be
000002b0: e439 113d d157 acbc de40 6e3d 82dc c33d
000002c0: 9094 653e 2ae2 653c 9ea1 debd 91c2 e7bc
000002d0: ed05 8fbc d40e fbbc 9c71 54be 1190 063e
000002e0: 2fa6 afbc e515 f73d 318d d23c 8684 4bbc
000002f0: f71f 113e 88d7 b63d e1c9 d3bd febe 393e
00000300: bd1c 3ebe 3c27 2b3c 0111 5f3e 2757 3e3d
00000310: 4766 253c fa28 01be 6dd7 a4bc e43a 1b3e
00000320: b51a 1cbe 12e2 24be 0fea dc3d a4d4 a53d
00000330: 8612 3fbd 127e 1e3e bfd3 823e 7ff2 a83d
00000340: 4d30 17be b334 7b3d aa35 f3bd 6e99 b6bc
00000350: 91f2 363e 365c 4b3e 7954 693c 1e3b 043d
00000360: a615 a6bc 98cf 44bd dcac cebd 4850 e3bc
00000370: 9160 02be 7970 8fbd 0533 2dbe 88e9 18be
00000380: 53eb 5c3d 538b 52be 6d51 b5bd 4df0 603d
00000390: 33d5 013d d060 8c3d 090b 843e 2adc 543c
000003a0: a92e 093e 2b8a debb 5eeb fd3d 2069 afbd
000003b0: c974 3bbc be7e 9e3d 605e f53d ae77 3c3c
000003c0: 7dfc 15bc 8895 d03d c7af 293d 052d 243e
000003d0: 8bf7 1fbe 6ba0 4ebb 0f5e 313e 9e3e 0a3e
000003e0: a52e ca3d 3e3f 363e a84a 1c3e 4369 603e
000003f0: d847 b73d 5d13 0c3e af70 cebd bdfa 90bd
-0.089321025 -0.035941523 0.050011676 0.03659045 -0.031882416 0.017395053 0.04836182 0.22776635
-0.04046564 0.06669279 0.06368141 0.10989486 0.09412694 -0.16016416 0.19389604 0.0889865
-0.13739702 -0.013159847 -0.006308068 0.15184136 0.06302683 0.0031000644 -0.31947643 0.029621158
-0.10812152 -0.057182234 0.040850878 0.20626634 0.095202945 -0.026772486 0.058784835 0.027771251
-0.01747613 -0.0018733493 0.045663483 0.075755075 0.2065071 -0.0732384 -0.24504752 0.15024145
-0.040194195 -0.071145356 0.04969924 0.075455815 0.0124079455 0.0783293 0.09020453 0.01138608
0.19640641 0.021318065 -0.11951676 -0.10577345 0.10504248 -0.28472498 0.01600158 0.33711395
-0.04612343 0.1769702 -0.0051900763 0.18930227 0.050394293 0.31841347 -0.0033412927 0.15286909
0.038263857 0.032534346 0.004194241 -0.040106747 0.03999324 0.023846274 0.045541976 -0.032414053
0.19054446 0.14868784 -0.014298268 0.0874542 0.18830481 0.046811868 0.12212733 -0.008172908
0.15497307 -0.055055 0.029445622 0.11688362 0.09245483 0.036601927 -0.08987578 -0.20528851
0.10400971 0.055558495 0.17881735 0.0007428988 0.19998886 -0.0041586496 0.055991217 0.081848264
-0.019149303 -0.011678635 -0.05630741 0.10592909 -0.026787538 -0.043641116 0.048769772 -0.0434538
-0.0019292854 -0.014194084 -0.17593655 -0.12028137 -0.08096269 0.015098289 0.115715094 -0.01733399
-0.084273994 -0.04046631 0.14646797 0.17569555 -0.027440077 -0.08006374 -0.03821828 -0.10374146
-0.037486896 0.08217986 0.019698482 0.14867222 -0.009240555 0.025809782 0.19390456 -0.022833116
0.081260905 -0.026008956 0.12772627 0.177379 -0.016493542 -0.09539534 0.036474947 0.1369258
0.32890508 -0.01803969 -0.07047493 0.04006708 -0.030113302 -0.0059425263 0.10854629 -0.092292294
0.22667447 -0.12218468 0.096288495 -0.12724859 0.028247807 0.05868014 0.1454763 -0.13611224
-0.042273223 -0.036884155 0.0149865905 0.050446503 0.06032605 -0.025024777 -0.054724395 -0.03591874
-0.035085563 0.1479746 0.10211592 0.083800964 0.037535485 -0.17072769 0.11135709 0.047528423
0.12167417 0.14625801 0.3395971 -0.15828358 0.0354556 -0.021037968 0.05816733 0.09563543
0.22419953 0.0140309725 -0.1087067 -0.028291019 -0.01745888 -0.030646719 -0.20746464 0.13140894
-0.021441547 0.12064723 0.025702091 -0.012421733 0.1417235 0.08927828 -0.1034124 0.18139264
-0.1856565 0.010446366 0.2178383 0.046469834 0.010095186 -0.12613288 -0.020122254 0.15159184
-0.15244563 -0.16101864 0.10786831 0.080971986 -0.046648525 0.1547778 0.25552174 0.082493775
-0.14764519 0.061329555 -0.1187547 -0.022289958 0.17865969 0.19859394 0.014241331 0.03228294
-0.020273995 -0.04804954 -0.10091564 -0.027748242 -0.1273215 -0.07003874 -0.16913994 -0.14932835
0.05393536 -0.2056096 -0.08853421 0.05491667 0.031697463 0.06854403 0.2578967 0.012991944
0.13396706 -0.0067913732 0.12398408 -0.08564973 -0.011441418 0.07739018 0.11980891 0.011503143
-0.009154436 0.10184771 0.0414274 0.16032799 -0.15621774 -0.0031528722 0.17321037 0.13500449
0.09872178 0.17797562 0.15262854 0.21915154 0.0894925 0.13679262 -0.100800864 -0.070790745

network_body._body_endoder.seq_layers.2.bias f4 [264]
00000000: a79a 953d 9b66 8dbd 0075 c6bd 7cff 9dbd
00000010: 9167 a4bd b5c2 18bd 942e 47be 7355 0dbe
00000020: 0021 fbba 036f a0bd 8a79 00be 402a 0dbe
00000030: dcca 37be ba42 d4bd 7fe3 e4bd 0f8a b8bd
00000040: 3897 19be 67e9 d3bd 9776 823c a88e ffbd
00000050: 3075 35bd 0c4a 2dbe f4e1 18be fe44 ddbd
00000060: 2df4 1dbb db23 23be f7ca 05be d773 9abd
00000070: 645a e2bd c810 1bbd f610 0bbd 2d6e 90bd
00000080: e391 50be 7ec3 ebbd f593 e6bd fd35 2ebd
00000090: af83 bdbd 11f2 87bd b650 953d b653 ccbd
000000a0: 8bef a1be 38f3 02be a26c a5bd 2eed 63be
000000b0: 6a2d e4bc 7374 cbbd 9b04 793d 7823 35be
000000c0: 3282 a3bd 98c8 40be 1574 f7bb ac46 74bc
000000d0: 08b8 3c3d b2cd 0fbe 003f a8bd 8df2 c3bd
000000e0: 59e7 10be 6de7 1dbe 8fc9 28bd be6c 35bd
000000f0: e131 a1bd ebce 00be 46d2 cf3c d232 183e
00000100: ce70 36bd 64ce 3abe f243 c5bd 27bf dcbd
00000110: 0d9d c6bd 0978 f93b d430 90bd 1686 3dbe
00000120: ae87 75bd 695d ae3d 0bbf 94bd 289a b5bd
00000130: 8816 1bbd ec05 28be e037 70bd 54de f4bd
00000140: dbd6 84bc 62fb 13be 3751 4dbd e616 33bd
00000150: e51f 25be 087d 0cbe b5af d7bd 693d 20be
00000160: 0681 1cbe f71f 91bd cc5b 08be a84c f3bd
00000170: 7508 d1bd a7f5 1dbe 05bd e9bd 1956 0abe
00000180: 7f45 0ebe e411 02be 0e94 5ebe 62b9 7fbd
00000190: d040 0bbe 9866 4fbe f6e0 7cbd f8de c2bd
000001a0: bbad f0bd 282b 3cbd e68b a6bd cc41 c8bd
000001b0: e5bb 84bd 5b5a 12be a1cd c9bd 873c a5bd
000001c0: 1a50 2cbe 1ba4 02be 5666 d1bd 46a9 4cbd
000001d0: 3756 cfbd 1130 15be 5d2e 0fbd 873c ac3d
000001e0: da8c 96bd a2b9 d83c 52cb 04bd 48aa b3bd
000001f0: c101 c0bd c89a 06be 5cea c0bd dfa2 2dbc
00000200: b400 25be 3af5 34be 6df0 20be 249c ec3b
00000210: 1d2b b23c 92fe d9bd 7505 59be ffc4 09be
00000220: 5fd5 56be e4b3 d9bd 69de 0fbe a567 38bc
00000230: 3994 a33c bafd 87bd a239 16be c8a5 853c
00000240: e903 b3bc c036 d0bd 58bf 2ebe cb09 d5bd
00000250: ba35 84bc e625 d5bd 61cb 153d 3f8a 91bd
00000260: 4d09 e3b9 521e dfbd 5731 47be afbd 7ebd
00000270: 7ad4 1abe 133f bfbd b1d2 f7bd 770b 13be
00000280: 15e3 5fbd 0ac1 09be 84b2 07be 719d 0abe
00000290: 6264 99bd dd32 c2bd 5881 cebd 6602 33be
000002a0: 5732 c8bd 4595 19be e1cf 023e f909 993c
000002b0: 8b79 8cbd 3f2d fe3d 41f8 67bd 57b3 fabd
000002c0: 409c d4bd 0386 73bd de7c 42be a7cc 18be
000002d0: 29ff 97bd 13f1 14be d332 9dbd 31b1 12be
000002e0: 6eda 4a3c 75e9 48be 2621 5fbe dc92 15be
000002f0: 70c6 02be a367 fcbd f6b4 b7bd 5380 54be
00000300: a8d3 ccbd 59e0 89bd ec9b 83bd ad92 febd
00000310: 08fc 94bb e81f d4bd 28f6 65bd 5ea3 53bb
00000320: 79de f4bd 9cd6 09be 8914 e8bd ba14 d3bd
00000330: 7bc0 54bd effd 22bd 858d d8bd 655e 4fbd
00000340: b2ed 0ebe bfac 19be 5d07 ffbd 467e 27be
00000350: a69d 203d 9d05 163d 1899 27be d433 413d
00000360: f95b 34bc 31bd bb3b 1be0 29be a0f6 34bd
00000370: dc51 4abd 2dad 38be 3683 0abe e565 553d
00000380: b8df cabd 2992 30be c630 83bd 1479 28be
00000390: 6fe1 09be 5e36 aebc 1470 86bd 2750 2dbe
000003a0: 6828 18be 30af aabd 9560 acbc 40e4 afbd
000003b0: 47d4 0f3d 6a4f b3bd 6e65 6eb9 2782 12be
000003c0: 697f c5bd a02c 52bd 5f8e 8bbc 2a15 bcbd
000003d0: b71c 0cbe a6ef 9cbd 4359 09be 4f7b 07be
000003e0: 06b0 0dbe 7c25 23bd a981 e9bd e470 2abe
000003f0: 7dbc 2abe a665 e6bd 78a8 41be 75e5 51be
0.07304888 -0.06904336 -0.09690285 -0.077147454 -0.08027566 -0.037295062 -0.19451362 -0.13802128
-0.0019159615 -0.07833674 -0.12546363 -0.13785648 -0.17948478 -0.103642896 -0.11176204 -0.090107076
-0.14999092 -0.10347252 0.015925689 -0.124783814 -0.04430121 -0.16922778 -0.14929944 -0.10804175
-0.002410184 -0.15931647 -0.13065706 -0.07541626 -0.11052397 -0.0378578 -0.033951722 -0.07052264
-0.20368151 -0.115118966 -0.11258689 -0.042531956 -0.09253632 -0.066379674 0.07290785 -0.09976904
-0.3162807 -0.12788093 -0.08077361 -0.22258446 -0.027853686 -0.0993432 0.060795408 -0.17689312
-0.07983817 -0.1882652 -0.00755168 -0.014909428 0.046073943 -0.1404331 -0.08215141 -0.09567747
-0.14150752 -0.15420313 -0.041207846 -0.044293158 -0.07870842 -0.12578933 0.02536882 0.14863136
-0.044541173 -0.18242794 -0.096321 -0.10778647 -0.09697924 0.0076131863 -0.07040563 -0.18508181
-0.059943847 0.0851391 -0.07263001 -0.088672936 -0.037863284 -0.16408509 -0.058647037 -0.11956468
-0.016215732 -0.14451364 -0.05012628 -0.04372301 -0.16125448 -0.1371957 -0.1053156 -0.15648426
-0.15283594 -0.07086175 -0.13316268 -0.118798554 -0.10206691 -0.1542574 -0.11413006 -0.13509406
-0.13893698 -0.12702137 -0.21736166 -0.062432654 -0.13598943 -0.2025398 -0.061737977 -0.09515184
-0.117518865 -0.045939595 -0.08132152 -0.09778175 -0.064811505 -0.1429228 -0.09853674 -0.08068185
-0.16827431 -0.12757914 -0.10224597 -0.04996612 -0.10123866 -0.14569117 -0.034956325 0.08409982
-0.07351084 0.026455704 -0.032420464 -0.08772713 -0.093753345 -0.13144982 -0.094197005 -0.0105979135
-0.1611355 -0.17671672 -0.15716715 0.007220762 0.021749074 -0.106442586 -0.21193488 -0.13454054
-0.20979832 -0.106300145 -0.14049686 -0.0112551795 0.019968139 -0.066401914 -0.14670423 0.016314402
-0.02185245 -0.10166693 -0.1706518 -0.104022585 -0.0161389 -0.10407619 0.03657091 -0.071064465
-0.00043303744 -0.10894455 -0.19452415 -0.062192615 -0.15120116 -0.09338202 -0.12100733 -0.14359842
-0.05465992 -0.13452545 -0.13251692 -0.13536622 -0.074898496 -0.09482358 -0.10083264 -0.17481384
-0.097752266 -0.14998348 0.12774612 0.018681513 -0.0685912 0.12410974 -0.056633238 -0.122412376
-0.10381365 -0.059453975 -0.18992946 -0.14921819 -0.07421715 -0.14545088 -0.076757096 -0.14325406
0.012381179 -0.19620307 -0.21789989 -0.14606804 -0.1277101 -0.12324455 -0.089700624 -0.20752077
-0.10001308 -0.06732244 -0.06426224 -0.1243032 -0.004546646 -0.10357648 -0.056142956 -0.003229342
-0.11956496 -0.13460773 -0.11332042 -0.10306688 -0.051941376 -0.03979295 -0.10573868 -0.05062713
-0.13957861 -0.15007304 -0.12452576 -0.16356763 0.039212845 0.036626447 -0.16366994 0.047168568
-0.011008256 0.0057293405 -0.16589396 -0.044180512 -0.049394473 -0.18034811 -0.13526616 0.052099127
-0.09905952 -0.17243256 -0.06405787 -0.16452438 -0.13464902 -0.021266159 -0.06564346 -0.16925107
-0.14859164 -0.083341956 -0.021042148 -0.08588457 0.035114553 -0.087553814 -0.00022735234 -0.14307462
-0.09643442 -0.05131209 -0.017035661 -0.09183724 -0.13682829 -0.07662897 -0.13412957 -0.13230632
-0.13836679 -0.03983067 -0.11401684 -0.16644627 -0.16673465 -0.11249857 -0.18911922 -0.20497687

network_body._body_endoder.seq_layers.4.weight f4 [264, 264]
00000000: f192 adbd f955 2abe 36ed 8a3c 133d 44bc
00000010: 0478 75be 4423 62be 4641 79bd 53b1 453b
00000020: 44d8 7bbb 95e2 96bd 12f9 a33d 0f42 0e3e
00000030: 077e 03be 1c08 19bb a9ce 2c3d 1fa8 a5bd
00000040: 2c21 cb3d 940b 2fbe 34a9 a43c 4d65 aebc
00000050: eabd a1bd 396e 83bb fa3d ddbd 21d1 f7bc
00000060: 09d2 1e3d c41b 0dbe 0461 fdbd 4626 e6bc
00000070: e106 22be 8c1a afbd a030 81bd 4fed c93c
00000080: d5f9 63bd 709f 03be 11fe 7fbe 1e9f 583d
00000090: 3046 e2bd a9ff a63d e229 403d cfff cbbc
000000a0: 9030 0d3d e944 9fbd 239b d1bd 70d1 a13d
000000b0: 2035 63be 34bc 1fbd 2943 303d 1e45 94bd
000000c0: 4de4 20be 459e 30bd 918e 6d3d cd30 e3be
000000d0: 0732 7c3c c094 3fbe e35c 38be 870f 21be
000000e0: a667 7abe f176 c83d 8f5c 013e bfc5 3ebe
000000f0: e12e cb3d c705 3abd cfb7 4c3c 91ef 34bd
00000100: 7d45 fa3b 88ca 3d3d fb02 243a dfc6 c7bd
00000110: 774f a63d f04f 60bd a57a ffbc 089e 11be
00000120: 5711 43be e23e ddbd 532d 6c3d 03c9 ecbc
00000130: 475c 443d 9f34 fbbd 2676 7dbd 80a3 7fbe
00000140: 4d47 aabc 2ef5 173e 1995 9a3c ab64 153c
00000150: 02ca 2fbe a3cf 2dbd 8875 22be 3509 093d
00000160: a93d 81bd 2d34 b23d cf78 aabc bfb1 46be
00000170: 68cc 61bd 53b7 25be 7595 b53d 7b6e b9bd
00000180: 679e 7a3c 0223 863d 2ab8 943c 596c 823d
00000190: d084 f0bd 231e c63d 51a6 8ebc 981b c0bd
000001a0: 4d04 98bd 9fde 15bb a993 68be 9908 3b3d
000001b0: 36d8 8dbd 8aa8 94bc 5283 123e 1a5f b4bd
000001c0: 156f 9bbd 287d a4be 0bd5 67bd de1b f4bd
000001d0: e732 57bc 6088 063d 47be 4a3d efba 4b3d
000001e0: f8a7 d23c 8166 68be 02c5 3bbe d2a6 93bd
000001f0: b964 1ebe 5597 1d3b 2ba2 07bc e9f2 27bc
00000200: fdfb cbbd 8707 953d 3607 2fbd c590 02be
00000210: 52e5 80bd ac8d 74bd 19b3 e73d cb84 0a3e
00000220: b109 083e abf6 7bbd 2ead fbbd 1792 09ba
00000230: c32f 0c3e f3f8 6ebd 70f3 f33d 424b d6bc
00000240: 904e 95bd f826 7abe de71 cbbd 1fd0 683c
00000250: 4f73 23be 04ed 873d bede 10be 0a1b c63d
00000260: 22cb 183e c23e d1bc 0c8b 71bd 962d d93d
00000270: 3b4c 9ebd 3457 f8bd e798 b5bd 4ad4 0ebe
00000280: 66ea c7bc b8fc fe3c 7a7e 3abe c23f 29be
00000290: 9b99 23bd 3a2a a2bc 9e89 29be a573 e3bc
000002a0: 660e c7bd 5830 42bd 3ed5 603e b58d 9f3c
000002b0: b93a fdbd a133 283d 92b7 97bd 4b7d 37be
000002c0: 53d8 953c f484 633d a898 013d c270 ccbd
000002d0: c12d 6bbe 8876 e8bd c225 633c 9224 353d
000002e0: feee 8e3c 7ac6 3bbd d3c9 c3bd f96b a9bc
000002f0: 23e4 9d3d de25 fb3b 3588 6dbe a526 0dbe
00000300: 3f2b f5bd b503 dbbb 105f a83d 57ce 2cbc
00000310: e7f1 babd 0513 8abd e14f 113d da6b 2a3e
00000320: e84d 6bbe 34f6 6dbd a1dc cebd 6514 aabd
00000330: 8f49 f4bd 819b 0abe c370 e6bb 42b0 66be
00000340: 8fa7 5abe 5a34 a93c f7fe 903c 6caf 3c3c
00000350: d35b 453d 0b41 053e c1f1 2ebe 4908 4fbe
00000360: 59bc 0b3c 3c31 9e3d 62e1 afbd edd9 98bd
00000370: d4f5 c2bd 5bbd a33d bd86 9fbd cf1d 153e
00000380: 70fa 063d f1d4 9bbd 7f66 8a3d 8000 38bc
00000390: 9e00 4fbd ff03 02bd f823 353e 740f 57be
000003a0: a70f 29be 7115 89be e6bc 463e fb55 033d
000003b0: 7972 cd3b f0e6 fbbd 6c6a 48be 9092 263e
000003c0: 3559 4d3e 78a6 1dbe 2234 5dbe 49ca 6dbd
000003d0: 8996 0ebe 0971 ddbd 1ad1 31be e1cf 09be
000003e0: 0f62 babc e597 cfbd 7fb4 dbbd 915c 0fbe
000003f0: 11d2 343c 185c 593d 0439 893d 3e6d 01be
-0.084752925 -0.16634358 0.016958814 -0.011977452 -0.23971564 -0.22083765 -0.060853265 0.0030165508
-0.0038428465 -0.07367436 0.08006491 0.13892387 -0.12841044 -0.002335078 0.042189274 -0.08088707
0.099184364 -0.1709426 0.020100214 -0.021288538 -0.07897551 -0.0040109423 -0.10802837 -0.030251088
0.038774524 -0.13780123 -0.1237202 -0.028094422 -0.15822937 -0.08549985 -0.063081026 0.02464929
-0.05565818 -0.1285379 -0.24999262 0.05288612 -0.110485435 0.08154232 0.046914943 -0.024902252
0.03447014 -0.077768154 -0.10234668 0.07901275 -0.22188234 -0.038997844 0.0430328 -0.072397456
-0.1571209 -0.043119688 0.05799729 -0.4437317 0.015392787 -0.18709087 -0.18004183 -0.1572858
-0.24453601 0.09788311 0.12632965 -0.18630122 0.09921051 -0.045415666 0.012494995 -0.04417378
0.007637678 0.046335727 0.00062565476 -0.097547285 0.081206255 -0.054763734 -0.031186411 -0.1422044
-0.19049583 -0.108030096 0.057660412 -0.028904444 0.047939565 -0.12265896 -0.061880253 -0.24964714
-0.020785952 0.14839622 0.018869923 0.009118239 -0.17166904 -0.042434346 -0.15865147 0.033456046
-0.06310589 0.08701358 -0.02080956 -0.19403742 -0.055126578 -0.16183214 0.08866397 -0.090542756
0.015296555 0.06549646 0.018154223 0.06368322 -0.11744082 0.09673717 -0.01741329 -0.09380263
-0.07422695 -0.0022868288 -0.22712578 0.045662496 -0.069260046 -0.018146772 0.14307907 -0.08807202
-0.075895466 -0.32126737 -0.056599658 -0.11919378 -0.013134695 0.0328449 0.04949787 0.04973882
0.02571486 -0.22695352 -0.18336871 -0.07209553 -0.1546811 0.00240465 -0.00827841 -0.010250785
-0.09960172 0.07276826 -0.042731486 -0.12750538 -0.062937394 -0.05970542 0.11313457 0.13527219
0.13284947 -0.061514538 -0.12288891 -0.00052479043 0.13690095 -0.058342885 0.119116664 -0.026158933
-0.07290375 -0.24428928 -0.09933828 0.014209776 -0.15961955 0.06637004 -0.1414747 0.09673126
0.14921239 -0.02554262 -0.058970496 0.10604398 -0.077293836 -0.12126008 -0.088670544 -0.1394817
-0.024403762 0.031126365 -0.1821231 -0.16528228 -0.03994141 -0.019795526 -0.16556403 -0.027765105
-0.09719543 -0.047409385 0.21956345 0.01947675 -0.12364716 0.041064862 -0.0740806 -0.17918889
0.018291628 0.055546716 0.031639725 -0.09982444 -0.22966672 -0.11350733 0.013863983 0.04422433
0.017447945 -0.04584358 -0.09559979 -0.020681368 0.07709529 0.007664426 -0.2319649 -0.13784273
-0.11971139 -0.0066837915 0.08221257 -0.010547242 -0.091281705 -0.06741909 0.03547657 0.16642705
-0.22978938 -0.058096126 -0.101006754 -0.08304671 -0.11928093 -0.13535883 -0.007032485 -0.22528175
-0.21352981 0.020654846 0.017699702 0.011516433 0.048183274 0.13013093 -0.1708441 -0.20218004
0.008528792 0.077242345 -0.0858791 -0.07463441 -0.09519544 0.07995101 -0.07789371 0.14562152
0.03295368 -0.07608975 0.06757831 -0.011230588 -0.050537698 -0.031742092 0.17689502 -0.21001989
-0.16509877 -0.2677417 0.19407997 0.03206442 0.0062697497 -0.12299907 -0.19571847 0.16266847
0.20053561 -0.15395534 -0.21601918 -0.058054242 -0.13924612 -0.10812575 -0.17364922 -0.13458206
-0.022751836 -0.101363935 -0.10727786 -0.14000155 0.011036412 0.053066343 0.06700328 -0.12639329

network_body._body_endoder.seq_layers.4.bias f4 [264]
00000000: 6566 463d ed30 65be a68c 37be b5b7 cabd
00000010: 7e13 1ebe aa8c e73d bf2b c8be 7807 23bd
00000020: 1133 8bbe a8e8 18be 73a6 84be 08ea 12be
00000030: c534 13be 6af6 2bbe 6f65 d0bd 1099 c7be
00000040: 2077 07be 9f84 4b3d f037 66be 9297 c7be
00000050: 3845 e6be 29b1 22be 5bc4 81be f375 0fbe
00000060: 2420 40be 36a3 99bd d792 07bf 653e 1ebe
00000070: 43d7 00bf 2038 afbe bbb2 ffbd 161b d4bd
00000080: f723 2ebe 54b0 2bbe d6cb 9fbd e23b 01bf
00000090: 50aa 4cbe a4d6 a9bd 5766 6e3d 8c48 b93d
000000a0: 3069 043d e3c9 763d 9c3b b9bd 2e44 46be
000000b0: 314c 04bf 21b2 b4bd ebd5 34be 00de a9be
000000c0: b376 acbe 5d74 0fbe 488e 03bf 9560 28bd
000000d0: f0cc 113c 8f15 ebbe cbc4 813d 263a 8c3d
000000e0: fde5 99be a170 95be cc9f 183d 5214 0dbe
000000f0: fa36 42be 2a06 1fbe 111a 57be 7018 943c
00000100: ff64 c1be 7e34 c5bd 70db a8bd 05a7 10be
00000110: 1aa0 f5bc aa49 10be 0c49 0bbe c60f bfbe
00000120: 7720 cabe 8681 d5be a5fb d4bd 9e92 e8bd
00000130: 4a56 d2bd 56c2 48be 0d2c 66bc fb11 fabe
00000140: db44 bfbe 67b3 1fbc c101 b5bd 47d7 0bbe
00000150: 8c44 b33d 7e8d 7d3d ddf1 16be 612a ef3c
00000160: 8ee9 593d a397 d1bd 7a42 d5bd 4a32 79be
00000170: 2a32 cdbe 0c4a 50be 143e 1ebe 795e 82be
00000180: f3b0 d2be 376e 1f3d c9ef ddbe 2815 27be
00000190: b8a3 0cbf f7c0 1ebe d1f8 f8be df3e 9fbe
000001a0: 394e babd 9134 b6be a218 d8be 11e4 c1be
000001b0: 5004 1cbf d092 853d cd17 33be 92fa 02be
000001c0: 61b1 3dbe 574f b1be 7146 3fbe c5b6 febe
000001d0: 0ced 41be 8d03 14be 8f19 843d 558b 97be
000001e0: 6780 0fbe b92b b6be a5a3 60be 8436 05be
000001f0: bce8 a1bd a120 0b3d be52 bebc 8c06 56be
00000200: db8d 6bbe 31ec 38be 7890 89be fa2e 6abd
00000210: 86d0 6abe 747c d9bd 34fe babd 8242 98be
00000220: b7da 10be 5f15 14be f1a3 12be 9c0a 42be
00000230: 6c1d 333c 0f06 8abe 555b 66bd 5604 eabd
00000240: 1271 00bf 4ceb f4be 3383 5abe 56b3 9c3c
00000250: b931 13be be22 f3be a691 04bd 7b7e 8bbe
00000260: 831b 61be c1c7 c9be 7e4f fdbd da7c 82be
00000270: 5a73 08be 47c1 8cbe a288 5cbe eb13 43be
00000280: 0651 85be c8b0 85bc dc60 d5be ab7c 943d
00000290: 6e79 ccbd ac18 84be 06ed 9abd 4291 d23c
000002a0: 8428 00bf 123f b2bd 98f2 26be 3d36 a5bd
000002b0: 4a02 7dbe e0a3 8abe fcd6 0dbe 7338 53be
000002c0: ea53 083c 5dab 9cbe 72d8 7bbe 7070 04be
000002d0: 1ec1 e8be 1d38 46be ac88 7dbe 3310 26bd
000002e0: 79cc 99be 7afa 14be af42 4bbe b47f 65be
000002f0: 7efe eabd 5faf 76bd ba7b 8ebe 498c 13be
00000300: 5e47 0abf 6217 36be 6fff 43be 92dc 42be
00000310: ed7f 0fbe 7dcd e8bd 0af1 b0bd 5f03 f4be
00000320: 8c2e debd edac d7be 0c99 67bd 6911 a6be
00000330: 6a70 13be 4561 debd 7746 66be d074 97be
00000340: 84e5 45be 4dee 8fbe 2985 18be 69ea 68be
00000350: 3d27 4fbe 21fd 17be 9621 79be 49db f5be
00000360: 2369 6ebd 7e8d 93bd 539c ce3a 338c 8ebe
00000370: 9faa 5fbe 01fe 00bc 0628 b6be 5bd3 06bf
00000380: 56ac d13c fe54 cebd 6350 cfbd aa4f 99bd
00000390: ebe6 b5be e08d 49bd 4665 b0be 3c63 76be
000003a0: 03f8 08be 31c0 7dbe 059c 02be 66a3 66be
000003b0: 0767 0bbd d98e 1bbe 00fb ed3c 0440 d9bd
000003c0: de40 5a3c d87d a4bd 284e fabd 1236 9abe
000003d0: 2c52 a7be 53d8 bbbd 2bcb 30be ec5a 83bd
000003e0: 3e1c 58be bd31 e6be 0153 e43d 80c1 c1bc
000003f0: f43e d7be 5db6 0dbd 87f4 e7bd 1a5f 12be
0.048437495 -0.22381945 -0.17924747 -0.098983206 -0.15437123 0.113061264 -0.39095876 -0.039802045
-0.27187398 -0.14932501 -0.2590824 -0.14347088 -0.14375599 -0.16793218 -0.10175597 -0.38983965
-0.13229036 0.049687024 -0.22482276 -0.38982826 -0.44974685 -0.15887894 -0.2534512 -0.14009838
-0.1876226 -0.07501833 -0.52958435 -0.15453489 -0.50328463 -0.34222507 -0.12485262 -0.10356729
-0.17005907 -0.16766483 -0.078025505 -0.50482 -0.19986844 -0.082928926 0.058203068 0.0904704
0.032326877 0.060251128 -0.09044573 -0.19361946 -0.5167876 -0.08823038 -0.17659728 -0.33177185
-0.3368431 -0.14009233 -0.5138898 -0.041107733 0.008898959 -0.45914885 0.063363634 0.068470284
-0.3005828 -0.29187492 0.03726177 -0.13777283 -0.18966284 -0.15529695 -0.21006037 0.018078059
-0.37772366 -0.09629153 -0.082449794 -0.14126213 -0.029983569 -0.140906 -0.13602084 -0.37316722
-0.39477894 -0.4170038 -0.1039956 -0.1135609 -0.102703646 -0.19605383 -0.014048588 -0.48841843
-0.3735722 -0.009747363 -0.08838225 -0.1365634 0.08753309 0.061902516 -0.14740701 0.029195013
0.05320125 -0.102340005 -0.1041307 -0.2433559 -0.40077335 -0.20340747 -0.15453368 -0.25462702
-0.41150627 0.03892347 -0.43347004 -0.16316664 -0.54937315 -0.15503298 -0.48627332 -0.31102654
-0.09096951 -0.3558698 -0.42206293 -0.37869313 -0.6094408 0.06522143 -0.17489548 -0.12790897
-0.18524696 -0.34630844 -0.18679215 -0.49748817 -0.18938082 -0.1445448 0.064501874 -0.2959849
-0.14013825 -0.35580233 -0.21937425 -0.13009077 -0.07905719 0.033966664 -0.023232814 -0.20900935
-0.23003332 -0.1805885 -0.26868033 -0.057173707 -0.22931108 -0.10619441 -0.09130517 -0.2973824
-0.14145933 -0.14461277 -0.14320351 -0.1894936 0.010932308 -0.26957747 -0.056239445 -0.11426608
-0.5017253 -0.47835767 -0.21339111 0.019128483 -0.14374436 -0.47487444 -0.032365464 -0.27244934
-0.21983151 -0.39410213 -0.123686776 -0.2548588 -0.13325253 -0.2749121 -0.21536496 -0.19050567
-0.26038378 -0.016319647 -0.4167546 0.07250341 -0.099840984 -0.25800073 -0.0756474 0.02570403
-0.5006182 -0.08703436 -0.1630348 -0.08066986 -0.24707904 -0.27078152 -0.13851541 -0.20627002
0.008320788 -0.3059949 -0.24594286 -0.12933517 -0.45459837 -0.19357343 -0.24759167 -0.040542793
-0.30038813 -0.14548674 -0.19849657 -0.22411996 -0.11474322 -0.06022584 -0.2782877 -0.14408983
-0.5401515 -0.17782357 -0.19140409 -0.19029453 -0.14013644 -0.11367319 -0.086397246 -0.47658822
-0.10848722 -0.4212412 -0.05654244 -0.32435158 -0.14398351 -0.108583964 -0.22487818 -0.29581308
-0.19325835 -0.28111497 -0.14894547 -0.2274567 -0.20229812 -0.14842655 -0.24329218 -0.48018864
-0.058205735 -0.07204722 0.0015763141 -0.2784134 -0.2184243 -0.007873059 -0.3557741 -0.5266625
0.025594871 -0.10074805 -0.101227544 -0.07485898 -0.3552774 -0.04920757 -0.34452266 -0.24061292
-0.13375859 -0.24780346 -0.12754829 -0.22523269 -0.0340338 -0.15191211 0.02905035 -0.10607913
0.01332113 -0.08031815 -0.12221938 -0.30119377 -0.3267988 -0.0917212 -0.17265002 -0.06413826
-0.21104524 -0.44959822 0.11148644 -0.023651838 -0.42040217 -0.034597743 -0.11325937 -0.14294091

action_model._continuous_distribution.log_sigma f4 [1, 3]
00000000: 410f dfbf 07bb cebf 16ad 99bf
-1.742653 -1.6150826 -1.2005947

action_model._continuous_distribution.mu.weight f4 [3, 264]
00000000: a463 1abd aee7 8bba cd96 39bb 8b1a ac3c
00000010: a5bd cabc a3ac 4b3c 8e01 b2bb 7227 afbd
00000020: c55a c7bc e142 c73c fac5 2cbd 6356 15bc
00000030: 89e7 46bd 848d 0d3c 71d1 8d3d 7fea 5d3c
00000040: e31f 19bb 0f9e 843d 776d a5bc 1d08 8e3b
00000050: 0bce 473c fc81 da3a 018f 55bd 08d7 74bd
00000060: 5588 003d e72b aabc 3d48 4c3c dc70 bfb8
00000070: 7e07 be3c a896 f73b 1bd7 393d d55c c7bb
00000080: 1edd fd3b aaa6 91ba 30b5 a83c 3fdb 793b
00000090: 490f 81bb a161 e7ba f70d a93c 523c 363d
000000a0: ce7d 563c 5c91 723d d4ba 30bc 7c8c 0f3c
000000b0: a788 b8b8 8c0b 1b3c c5ca 70bc c3b9 f43b
000000c0: 0fa1 cd3a 1810 283d 78da 2dbc 4eb6 ba3c
000000d0: 63b7 293d 114a 063c d26c 9fbd 7c07 623c
000000e0: c3a6 403b 4bfb 943d 75d3 b1bd dc7f 8abd
000000f0: 8bdb 333d cd10 17bd 9156 5ebc 596c 553d
00000100: fb43 00bc 2274 91bc 0f23 293b ba37 c9bb
00000110: dc7d e6bc 6cda 37ba 2878 5abd 9ca0 683c
00000120: 0b33 b4bc 3953 e7bb 2c5b 23bd 51e8 e73c
00000130: be20 383d 55e8 12bc 99e4 873c b32f d23a
00000140: d4b1 2dbb daef 793c 55d7 3c3d 1864 1bbd
00000150: 25bd 7cba 229c c0bd 84a6 a3bc 2937 4b3d
00000160: 721b 0d3c e2bd 9e3d 61b1 36bc 35a6 0cbb
00000170: d821 a3bb d609 013d 9a34 4b3d 9082 cbbb
00000180: 13d4 aa3b 34bc 22bd 2821 dd3c 3ee4 9f3c
00000190: f924 693c fe87 3abb f150 d03b a1a8 323b
000001a0: da5e 0fbd 4046 c03b 2e68 9dbb 3d27 1d3c
000001b0: dfbb 453d 5828 003e bc5a 2d3d 3bcd a73d
000001c0: b4f1 a5bc a6a6 953c 04ba 87bd 8451 713c
000001d0: 1f75 5cba 2a3f f33b 3f6f 65bd cf41 4c3c
000001e0: 283c db3c 76d9 c3bb 70ca 62bd c9c5 e6bc
000001f0: 0f63 ef3c f7f9 3d3c 4e32 ec3d 1b6e 69bc
00000200: f1c5 abbc 5f34 e4bc d397 dc3c b685 313d
00000210: c69a 52bd f82d 6e3c 1ba2 d63a 848b df3b
00000220: f653 48bc eb1a d1b8 33e9 00bb e9de 09bd
00000230: d889 393d 8330 8a3b fc73 ca37 80b9 fe3c
00000240: edff 75bc 966e 90bb b3ca 0bbd 5c25 aa3d
00000250: 6e33 8d3d aa86 e2bb d307 db3c dd0e 64bd
00000260: dbea 69bb 3948 9dba d877 f13c dee8 183c
00000270: 52f8 be3c 3487 cdbc f7db b83c 8be6 dabc
00000280: 71c7 76bb e23a 7f3c dc72 633c ecbd e9bd
00000290: aced 003e 2e21 98bc 7500 693d 32e3 cabc
000002a0: 14d4 b73b bdc3 cf3c 209d 31bc f171 443c
000002b0: f7e1 613d ae6b 16bc e0fc 083d 276d bebc
000002c0: 6a2c 343d 88ef a63c 05da da3c a27f 013b
000002d0: 7a93 773c d4f7 c3bb 1de7 3abb 0ee4 2cbd
000002e0: b5ca a6bc df67 233d c948 6c3d c04f 4cba
000002f0: 5ef4 bd3c a217 c1b9 ed97 0ebb 1e70 5c3c
00000300: 2e40 563b 6f8f 513c cab5 e73c a087 363d
00000310: f389 773c 97b5 d43d 1e17 07bd 00ec 9f3b
00000320: 9439 86bd 22e6 943c 0102 5c3d d937 80bc
00000330: 6876 2bbb c4e0 de3c 4adc dbbc de87 22bb
00000340: d557 93bd c073 5fbb 612a 5bbc 1d17 243b
00000350: 3643 fbbc b608 543c 11b8 a73c 618c 243d
00000360: 1308 393d a69c fe3d cd88 54bd cc20 a0bb
00000370: 05e4 313d e541 b5bb 21de 04bb e848 db3b
00000380: 20f5 0ebd 2a13 1a3c 61dd 0d3d 804b 103d
00000390: 2783 a7bc 5b31 1e3d 0096 20bc 7fa3 59b9
000003a0: 5972 48bc b349 953a 169d 2e3d db33 45bd
000003b0: 894f 823c 7325 09bd 85af 7bbd e84c b23c
000003c0: 1143 9a3d 44c2 a63c 5f5f b0bc 8f4f bcbb
000003d0: 9a1d 3bbd 4560 37b6 546e aebc e019 f03c
000003e0: 455d 02bc 0ee4 253c 7248 b7bc 6af7 3d3d
000003f0: 3c9e 923b 9c7d 58bc 916d c93c ad56 d7bb
-0.03769268 -0.0010673904 -0.0028318644 0.02100875 -0.024748633 0.0124312965 -0.0054323142 -0.085524455
-0.024335274 0.024323883 -0.042180993 -0.0091148345 -0.048560653 0.008639697 0.069247134 0.013544678
-0.0023364953 0.0647546 -0.020193798 0.0043344633 0.012195121 0.0016670818 -0.052138332 -0.059775382
0.031380016 -0.020772887 0.012468395 -9.1286114e-05 0.023196932 0.0075558014 0.045371156 -0.0060840645
0.0077473065 -0.0011112292 0.02059421 0.0038125066 -0.0039385897 -0.0017652997 0.020636542 0.04449112
0.013091518 0.059220657 -0.010786731 0.008761521 -8.799257e-05 0.009463202 -0.0146967815 0.0074684336
0.0015688258 0.041030973 -0.010611169 0.022792008 0.041434657 0.00819637 -0.07784428 0.01379573
0.0029396273 0.07274493 -0.0868291 -0.067626685 0.043910544 -0.036881257 -0.013570444 0.05210528
-0.007828708 -0.017755572 0.002580825 -0.0061406763 -0.028136186 -0.00070134434 -0.053337246 0.0141984485
-0.021996995 -0.0070594815 -0.03988187 0.02830902 0.0449531 -0.008966525 0.016588496 0.0016035944
-0.00265037 0.015254939 0.046103794 -0.037937254 -0.0009641222 -0.0940478 -0.019976862 0.04961315
0.0086125005 0.07751061 -0.011150689 -0.0021461372 -0.0049783997 0.03150352 0.04961071 -0.0062106326
0.0052132695 -0.039730266 0.02699335 0.019518014 0.014230006 -0.0028462405 0.006357305 0.0027261155
-0.035002567 0.0058677495 -0.004803679 0.009591875 0.04827487 0.1251539 0.04232286 0.081934415
-0.020256855 0.01826794 -0.066272765 0.0147289075 -0.00084097864 0.007423301 -0.056014296 0.012466862
0.026762083 -0.005976851 -0.05536884 -0.028170483 0.02922204 0.011595241 0.11533032 -0.014247443
-0.02096841 -0.027857004 0.026927864 0.043340407 -0.051417135 0.014537327 0.0016375215 0.0068220515
-0.012227049 -9.9709105e-05 -0.0019670248 -0.03365985 0.045297474 0.004217209 2.4134286e-05 0.031094313
-0.015014631 -0.004407714 -0.034128856 0.08307907 0.06894575 -0.006913026 0.02673713 -0.055678237
-0.0035692963 -0.0011999673 0.029476091 0.009332864 0.023311768 -0.025088884 0.022565825 -0.02672126
-0.0037655497 0.015578004 0.013882365 -0.11413178 0.12590665 -0.018570509 0.0568852 -0.024766538
0.0056099985 0.02536189 -0.010840684 0.011990056 0.055147137 -0.009180946 0.033444285 -0.023245407
0.04398767 0.02037789 0.026715288 0.0019759913 0.015110845 -0.005980471 -0.0028519102 -0.042209677
-0.02036033 0.03989398 0.0576866 -0.0007793866 0.023187812 -0.00036829436 -0.0021758035 0.013454465
0.0032692063 0.012790545 0.028284926 0.044562936 0.015108573 0.10386198 -0.03298103 0.0048804283
-0.06553951 0.018176142 0.05371285 -0.01565163 -0.0026163105 0.027206786 -0.02683844 -0.0024800221
-0.07194487 -0.0034096092 -0.013376803 0.002503819 -0.030671697 0.01294153 0.020473512 0.04017294
0.045173716 0.12432222 -0.051888276 -0.004886722 0.043430347 -0.005531537 -0.0020274 0.0066920407
-0.03490174 0.009403983 0.03463495 0.035228252 -0.02044828 0.038621288 -0.009801388 -0.0002075564
-0.012234294 0.0011389762 0.042630278 -0.048145156 0.015907066 -0.03348298 -0.061446685 0.021765187
0.07532323 0.020356305 -0.021529851 -0.005746789 -0.045682527 -2.7325161e-06 -0.021292843 0.029309213
-0.0079568075 0.010125173 -0.022373412 0.04637853 0.0044744294 -0.013213541 0.024588378 -0.006571612

action_model._continuous_distribution.mu.bias f4 [3]
00000000: 4a97 c5bd 1cd6 6abd 7ba6 45bb
-0.09647997 -0.057333097 -0.0030159045

64 f4 [26]
00000000: bb2b fd3e 02b3 893e 9163 ff3e 4570 903e
00000010: 7506 a03e 3f4c 573e a248 fa3e a884 ab3e
00000020: 8ed1 973e e656 8e3e 28f4 ce3e 1e94 9f3e
00000030: dba4 ac3e 7372 9f3e a577 d73e d6dc 973e
00000040: 1248 7a3e 07b7 6e3e 2950 c33e 5f23 213e
00000050: 3f6c f63e d71b 8b3e d7dc 8c3e aebc fa3d
00000060: dadc 8c3e aebc fa3d
0.49447426 0.26894385 0.4988065 0.28210655 0.31254926 0.2102518 0.4888354 0.33499646
0.29652065 0.27800673 0.4042065 0.31167692 0.33719525 0.31142005 0.4208347 0.29660672
0.24441555 0.23312007 0.38147095 0.15736149 0.4812946 0.27169678 0.27512237 0.12243019
0.27512246 0.12243019

67 f4 [3]
00000000: 7df9 1840 1a04 1940 600e 1940
2.3902276 2.3908753 2.3915024
