Parking Environment/Assets/Models/90deg_3stacked.onnx (onnx, 152164 bytes, 13 tensors)

network_body.observation_encoder.processors.0.normalizer.running_mean f4 [26]
00000000: 3661 d53e bd3c 323f 1394 133f b9ab 4b3f
00000010: c20c ea3c 1acb 173f 8d00 f03e d189 4a3f
00000020: 8771 8a3d 88e5 0a3f 5399 853e e895 3c3f
00000030: a044 383e 9087 f53e a0a0 163e f30f 483f
00000040: 2c33 a53d 2434 df3e 5e74 483f f208 723f
00000050: 978b da3e 97f8 403f c9c8 713f ac3c 7c3f
00000060: c9c8 713f ac3c 7c3f
0.4167573 0.6962393 0.5764782 0.795589 0.028570537 0.59294283 0.4687542 0.7911654
0.06759935 0.54256487 0.2609354 0.7366624 0.17994928 0.47954988 0.14709711 0.78149337
0.08066401 0.43594468 0.7830256 0.945449 0.42684624 0.7537932 0.94447 0.9853008
0.94447 0.9853008

network_body.observation_encoder.processors.1.normalizer.running_mean f4 [3]
00000000: 9fe3 343e e740 353e 7e97 353e
0.17664956 0.1770054 0.17733571

network_body._body_endoder.seq_layers.0.weight f4 [128, 29]
00000000: b893 06be 771c 873e 51c1 883d b206 9f3d
00000010: 47f2 473d edd9 e4bd 257a 3fbb f00d b4be
00000020: 6102 163e 90ec 0c3f e399 893e 7640 f1bd
00000030: 9e53 b53e 683a 373e 8b81 25be ae9b 093e
00000040: 358b 503d 5c14 bdbe 1742 aa3d 7462 22be
00000050: 9731 f7be fe78 41be 8d57 43bd e905 30be
00000060: 537f a53e dd05 983e ca99 22be 763e ca3d
00000070: eec1 bb3e ea0b 81be 0d07 0d3e c8f7 acbd
00000080: 0d6e 80bc 9b8d b5bd 907e a63e d4eb bbbd
00000090: 40ba 8abe d184 123d 3047 b7bd 66ec aabe
000000a0: 981b c1bd 9702 dcbd 2d5c 8ebe 95e5 a0bd
000000b0: 87b8 f8bc 5f68 84bc beaf 78be ca75 67be
000000c0: f622 18be 414b 7e3e 47e8 b43d bbb5 523e
000000d0: 7a1a 00be 7c68 37bd 681b 113e b11e 20bd
000000e0: cb2b 283e 5743 d53e a1d9 893e 1c05 c3be
000000f0: edd3 cdbd b385 a83e 0f7b 42be fb5d 46bd
00000100: bbfb e5bd bced 803d 7f15 bc3b 5790 b4be
00000110: 30fa 1dbe 3f4a 32be 1ea3 a33d b86c 8fbd
00000120: e8eb 72be 9e8d b43d 776d 31be 9dd0 cf3d
00000130: 1434 713d 3744 523e 3f6b 3bbe 5290 aa3e
00000140: 4bca fabe 0e34 dc3d 3098 31be 71c2 823e
00000150: 8f24 803e de5d 1dbe 0107 32be a9df b6be
00000160: 30ff de3d 40be dc3d 8c04 87be 1916 af3e
00000170: e376 4b3d 9204 763e 9b78 9bbc 95ac f83e
00000180: b25e 0b3d b546 73be d7eb c23e 156b 343e
00000190: c097 13be 1164 3fbe b996 8e3e e95c e0be
000001a0: 6fef 2dbe ad79 b93e 7fd7 fcbd 95cf 04be
000001b0: b0ef 033e 5b37 45be 57a1 2fbe 9367 8dbd
000001c0: c918 223e 7409 9a3c 47e5 e8be 40b9 47be
000001d0: 77c9 8f3e 13a3 433e 937d 723e 40c9 de3e
000001e0: 6f76 c63d df7e b0be c7c3 ec3d 481d 10be
000001f0: 1927 393e 554e 69be d414 603e cc68 99be
00000200: a6dc 75bd ce64 293e e961 163e fb70 9cbe
00000210: 8210 2f3d 966a 183d 22a0 88be 3ef2 bebd
00000220: eaa3 423e 509c 74bd 58fa 923e b205 c23e
00000230: 38f4 843e 21a2 0d3e c995 2fbd ac93 c6bc
00000240: 18e1 593e 945b afbd e8e9 63be 434c 383d
00000250: 48c8 d13e ec35 953d aa3e 58bd 96b7 3ebe
00000260: d29d 49be ae43 213e 6dca 023e 64c3 ddbd
00000270: 1b0e 493e ee50 573e 9af1 80bd 1a47 5a3e
00000280: 54e2 89bd 7c27 39be 851e a53e 1184 4e3c
00000290: 1c39 bb3e 66cb 6ebd 0f01 553d c60a 4ebe
000002a0: fa2a 59be d6c1 973e 4f5f 1dbd 0191 3b3e
000002b0: 3843 823c bbfa c73d 252d bc3d 2370 113e
000002c0: def9 843e 2785 8fbe e7e2 593e 2307 0b3e
000002d0: 6a13 b63e a58a 983b cc86 d8be 5565 103e
000002e0: 9bca 4a3e 8caf 0d3e bd30 c8bc 9044 a23e
000002f0: 62ac 0dbe d0aa 463e 0b1f a23d 74af 0fbd
00000300: 1705 923e 135a e0bd c838 b23d 92a7 63be
00000310: 6c1d 673d a024 6abe e0e9 863c 6605 63be
00000320: 19cd 57be ae0c ebbe fb79 463c ef9d 113e
00000330: 1f01 223e 71db ea3d ff14 71bd 98c8 673e
00000340: bc01 673d fe80 62be 6623 483e 8185 50bc
00000350: b81d 743e ed5e a03c 8396 d83c 5523 0bbe
00000360: 8441 603e 0ee6 55be e5c8 6bbd 6945 ff3d
00000370: d6b8 cb3d 48ed 663e e1c8 e03e f70f 8bbe
00000380: 2e8e 4dbe 62cc 0abe fb0c 04be 7044 88be
00000390: 229a 8cbd 06f0 3d3d 3549 77be bfd2 d53d
000003a0: 6e63 073f e6e8 233e b8a6 5b3e 818b ddbd
000003b0: cede bdbe da11 333c 9d54 913d 63c5 ff3d
000003c0: 9a37 d03b 3804 a83d ecf0 ecbd 8770 a5bd
000003d0: 8d2a 9e3c 6d66 ab3e a527 1c3e 233b a63e
000003e0: 8451 0b3e 61fa 2dbe 5277 dbbc 7a1c 8abe
000003f0: 6156 68be 12db 84bd 4050 173e f368 c93d
-0.13142288 0.26388904 0.06677497 0.07764949 0.048815038 -0.111743785 -0.002921709 -0.35166883
0.14649345 0.55048466 0.2687522 -0.11779873 0.35415357 0.17893374 -0.16162698 0.13438293
0.05091401 -0.36929595 0.08313387 -0.1585787 -0.48280022 -0.18893811 -0.047690917 -0.17189755
0.32323703 0.29691973 -0.15878978 0.09875195 0.36671394 -0.25204402 0.13772221 -0.08445698
-0.015677476 -0.088649 0.32518435 -0.0917584 -0.27095222 0.035771195 -0.08949125 -0.33383483
-0.09429091 -0.107426815 -0.278047 -0.07856289 -0.030361427 -0.01616305 -0.2428579 -0.22603527
-0.14857087 0.24833395 0.08833366 0.20577137 -0.125101 -0.04477738 0.14170611 -0.03909177
0.16422956 0.4165294 0.2692385 -0.38089836 -0.10050187 0.32914504 -0.18992256 -0.04842947
-0.112296544 0.06295344 0.005739867 -0.35266373 -0.1542747 -0.17411135 0.079900965 -0.07003158
-0.23722804 0.08816074 -0.17326914 0.10147212 0.058887556 0.20533834 -0.1830263 0.33313233
-0.48982462 0.10752116 -0.17343211 0.25538972 0.25027892 -0.15367839 -0.17385484 -0.35717514
0.10888517 0.10778475 -0.26370656 0.34196547 0.049673926 0.24025181 -0.018978408 0.4856917
0.034025855 -0.23757441 0.38070557 0.17618974 -0.14413357 -0.18690516 0.27849367 -0.43820885
-0.16985868 0.36225644 -0.1234579 -0.12969811 0.12884402 -0.19259398 -0.1715139 -0.06904521
0.15829767 0.018803336 -0.45487425 -0.19504261 0.28083393 0.19105177 0.23680715 0.43512917
0.09690558 -0.34471795 0.11560779 -0.1407367 0.18081321 -0.22783788 0.21882945 -0.29962766
-0.06002488 0.1654236 0.14685787 -0.30554947 0.042740352 0.037211023 -0.26684672 -0.09323548
0.19007841 -0.059719384 0.28706622 0.3789497 0.25967574 0.13831379 -0.042867456 -0.024240337
0.21277273 -0.08562389 -0.22257197 0.044994604 0.40973115 0.072856754 -0.052794136 -0.1862472
-0.1968911 0.15748474 0.12772532 -0.108282834 0.19634287 0.21026966 -0.06296082 0.21316186
-0.06732622 -0.18081468 0.32249847 0.012604729 0.36567008 -0.058299445 0.052002963 -0.20121297
-0.212078 0.29640073 -0.03842097 0.18317033 0.015901193 0.0976462 0.09188298 0.14202933
0.25971884 -0.28031275 0.21277963 0.13576941 0.35561687 0.0046551996 -0.42290342 0.14101155
0.1980385 0.13836497 -0.024437303 0.31692934 -0.1383529 0.19401097 0.07916077 -0.035079435
0.28519508 -0.1095468 0.087022364 -0.22231892 0.056424543 -0.22865534 0.016468942 -0.22170028
-0.21074332 -0.4590811 0.012114043 0.14220403 0.1582074 0.114676364 -0.058857914 0.22635114
0.05639814 -0.22119519 0.19544753 -0.012727142 0.23839462 0.019576514 0.026438957 -0.13587697
0.21899992 -0.2088854 -0.057564635 0.12464411 0.09947364 0.22551453 0.43903258 -0.27160618
-0.20073768 -0.13554528 -0.12895577 -0.26614714 -0.06865336 0.046371482 -0.2414902 0.10440587
0.5288609 0.16006812 0.21450317 -0.10817624 -0.3708405 0.010929549 0.07096217 0.124888204
0.0063542845 0.0820393 -0.1156939 -0.080781035 0.0193074 0.33476582 0.15249498 0.32466993
0.13605314 -0.16990043 -0.026790295 -0.2697485 -0.22689201 -0.06487097 0.14776707 0.098344706

network_body._body_endoder.seq_layers.0.bias f4 [128]
00000000: 6aab 323c 9f88 f53c 521f 303d 91f1 99bc
00000010: 3d09 3e3c ab69 a7bb cbb3 bdbd cca0 c93c
00000020: 098e 99bc ea3b 3c3d 8825 003c 41b8 8f3b
00000030: ce8b 4e3c 6259 893c c184 383d 4232 833c
00000040: 60b1 66bd 40f7 1abb 5217 be3c 5168 ffbc
00000050: 34c3 443d a0bd 96ba 8449 993c 1bc6 25bb
00000060: e26d 08bd f42b 013d e83b ab3b 7c2e b73d
00000070: 8a40 6ebc ff0e 8e3b ec09 243d 9261 82bd
00000080: b374 27bc 2756 ab3c 3d94 a43a b75a 13bb
00000090: 9241 3cbd 9fa0 173c 5f95 8e3d 8ebc 343b
000000a0: 1932 e9bd e0d4 023d a8c5 46bb cbe1 313d
000000b0: 2cff 18bc ca33 523d 2c00 b83d 5e98 063d
000000c0: 6774 363d d46a a3bc 9ec9 b63d 988a 0e3c
000000d0: 352d 713d 0399 d0bc 5540 d73d 423c 3f3d
000000e0: a077 c2ba d147 6abc bad2 c53c 231b ecbd
000000f0: 1feb d6bc c7c5 f0bc b86a 073d 0016 ff3c
00000100: 458d d93d e66c 733c c74f ba3c 814e 7bbb
00000110: 481b 94bc 0e29 763d de35 2dbd e269 883c
00000120: b45c 2d3d b2ff 3e3d 3ff2 013d ef5d 633d
00000130: 1bcb d43d 320d a83d e354 133d 35f1 60bd
00000140: b6bf a73d 131e b3bc 2ef1 f4bc f9cd bc3b
00000150: 2cc3 e1bc 06ea e2bd 55e4 093d 16fe 393d
00000160: f7f3 44bd 8df2 babc 00f7 f6bc 8808 33bd
00000170: 589c 303d 2a9a dbbb 3211 72bb 353f 88bc
00000180: f254 80bc fc82 123d 9d46 3dbd a5b7 833b
00000190: 2263 543d b099 d7bb 9a14 323d b768 a73d
000001a0: f6b8 90bd b5d0 9eba 5ff8 62bd c591 2a3d
000001b0: b5e3 a43d 0aa4 e6ba e950 ad3c 67ee 9a3d
000001c0: 2dc8 213d bb8c 8dbd 6416 aa3d b752 e0bd
000001d0: fca0 133c de27 15bd fcec f5bc 55cf 55bd
000001e0: d566 943c 3590 123d 8673 64b9 5c51 853c
000001f0: 902c ae3a 6e77 a7bc e651 663d 3d27 eabc
0.010905126 0.029972373 0.04299862 -0.018791946 0.011598882 -0.005109032 -0.092628084 0.024612807
-0.018744485 0.045955576 0.007821448 0.0043859784 0.012606574 0.016766254 0.04504848 0.016015176
-0.0563215 -0.0023645908 0.02320448 -0.031177672 0.048037723 -0.0011500604 0.018711813 -0.0025295082
-0.033307917 0.031536058 0.0052256472 0.08944413 -0.0145417545 0.004335284 0.040048525 -0.06366266
-0.010220694 0.020915104 0.0012556385 -0.002248449 -0.04596097 0.009254604 0.06962084 0.0027578208
-0.113865085 0.031941295 -0.0030330215 0.043428224 -0.0093381815 0.05131892 0.08984408 0.032860152
0.044544604 -0.0199484 0.08925174 0.0087000355 0.058881003 -0.025463587 0.10510317 0.046688326
-0.0014836676 -0.014299349 0.024148334 -0.115286134 -0.026235161 -0.029391183 0.03306076 0.03113842
0.10622648 0.014857506 0.022743119 -0.0038346353 -0.018079415 0.060097747 -0.0422877 0.016652051
0.042324737 0.04663057 0.031725165 0.055509504 0.10390302 0.08205642 0.035969626 -0.054917533
0.08190863 -0.021864926 -0.02990016 0.0057618585 -0.027558886 -0.11079793 0.03366502 0.04540833
-0.048084226 -0.022820735 -0.030147076 -0.043709308 0.04311785 -0.0067017274 -0.0036936519 -0.016631702
-0.015665505 0.035769448 -0.04620992 0.004019695 0.051852353 -0.0065796003 0.04347668 0.0817427
-0.070665285 -0.0012116643 -0.055412646 0.041642923 0.08051244 -0.0017596495 0.021156745 0.07565003
0.039497543 -0.06911608 0.08305052 -0.109532766 0.00901055 -0.036414973 -0.03002023 -0.05219968
0.01811544 0.035782058 -0.0002178681 0.016274147 0.0013288427 -0.02044269 0.05623045 -0.028583163

network_body._body_endoder.seq_layers.2.weight f4 [128, 128]
00000000: ae4c 09be e134 433e 197f be3d 2a0f 5fbe
00000010: bb16 a4bd c9b3 4dbe 7725 843d 7769 093d
00000020: 62f8 e1ba 156d 17be 3d95 16bd 8467 1b3e
00000030: fae3 673d 2bbe 22bd 7af1 8abd 9207 de3d
00000040: cd02 d23b ba2c 803d 1c34 443d b876 c03d
00000050: 51e0 d33d 0909 d63c 6827 46bd b7f1 afbd
00000060: 41c2 953d 60d4 6fbd f32a 2d3e dd70 5ebd
00000070: 29a2 623c c2be c1bd a2ec 513d fca1 b93c
00000080: 9068 14bd fe6c 0cbe cdc5 af3d 9065 d83d
00000090: 97eb 993c fe92 933d 2707 1e3d 75d5 cbbd
000000a0: 3fa2 cdbc 2f11 85bd ed64 3abd 49cc 3ebd
000000b0: 6fac 843c 242a f73c cc83 15be 6515 acbc
000000c0: f017 a6bc bb03 80bb 5017 643d 0e7a 06be
000000d0: 4f4b cebd f1bb c5bd 6c20 e8bd 35d2 fabd
000000e0: 108e 4ebe 95da d5bd 33f2 07be eb14 623e
000000f0: c4aa e13b 6551 4e3d 3c51 24bd 242c 8abd
00000100: 951a 4abb 0ca6 093c 2fc8 d7bd 2080 c6bd
00000110: 8cf1 6fbe 7252 adbd fade 27be 523f b23b
00000120: ff0b 32be 8252 13bd 1b34 dd3d bb35 bbbd
00000130: 09ac 89bd ea30 b2bc d24f ce3d efdb ba3d
00000140: 29da 143d 99db b63d a9ed de3d 50d4 10be
00000150: 5450 db3d b533 92bd ebcd 0f3e a23f 5ebd
00000160: 4914 9b3e 0798 49be 585d 43be 23ea eabd
00000170: e1f4 73be 581b 00be 5e41 5d3d 3648 153e
00000180: bb0e 1ebe c63a 173c 4776 0bbd 2125 e6bc
00000190: 8f35 58be a8f8 dd3d b5b8 9a3d 4a3c 4f3c
000001a0: 6561 d63d c41c 53be 8dc4 edbd 13a0 63bd
000001b0: fb54 8ebd 2201 bf3d c982 27bd 949a ebbd
000001c0: 05cd 96bd 301b f2bc d36d ce3b ee2b 3e3d
000001d0: 8e25 283c a43b 52bd c337 06be 2ebd d33d
000001e0: 3ba3 2ebe 9155 b2bd 6ab4 77bd ae33 fe3c
000001f0: cb1c c23d aac6 5e3e 3459 06be 05ba 963b
00000200: 5bd2 d63d df93 093e aefc 2bbd 426a f63d
00000210: 3bae 803d daa2 90bd e5d7 5fbd 5508 47bc
00000220: 86f4 19be c910 81be fa5f e8bd a845 25be
00000230: e2ce 123d 3b22 18be 8326 abbd 2245 d5bc
00000240: 13d3 1ebd 9f27 413d dad0 e4bd 4d40 59bd
00000250: 1dac 59bc 832a febd 0050 ecbd 70e9 823d
00000260: e5de a8bd b126 4fbc 3be1 563c eeff 4b3d
00000270: 11f5 6bbd 6c24 a4bd 0ed3 09be 34d2 06be
00000280: 41a5 493d bf85 653e 2aee 763c 13fd 00be
00000290: f9b8 9dbb 9eac 39bd 272c 1bbd 1e12 24bd
000002a0: bc80 613d e255 21be 3ff3 c13b 98c8 07be
000002b0: abbe 883c d944 04bd b432 d0bd 08d1 6d3d
000002c0: 3731 ecbd 8bfd 03be 5afb 7c3b e449 8dbe
000002d0: fd4a 06be 002c 2a3d 6093 853d ab3e 0f3e
000002e0: c7fb a23d 67f5 fd3d 4d95 1c3d 6700 44bc
000002f0: 4352 033e 61a2 733d 062d 0dbd d252 0abe
00000300: 6eef 95bd ab72 823d 62e4 1d3d 2a59 4a3c
00000310: b445 abbb 830f 9a3d df1d 523d 975e e63c
00000320: 1289 dbbd 624f e4bd a300 943d 7a09 303e
00000330: 19d8 a33c 43b1 04be 976d 193d 6d60 95bc
00000340: e354 21be 64d1 a33b d446 18be 4ca0 4fbe
00000350: 1293 b83d 274f 0fbe 9613 943d e6b5 2abe
00000360: 56c9 07be 85fa 15be 6ad0 ff3d 00c3 fe3c
00000370: 716e d23d 91cc b33d 6ef6 e83d c894 d23d
00000380: 4a9e ab3b c55c 17be 5de1 913b 4c39 c4bd
00000390: 76ce 5dbd 2c9e 8ebd 2cd1 643d 3048 0e3d
000003a0: 6563 d4bd 8142 df3d b078 c83d ac4c 4c3d
000003b0: 5969 1abe 6d0a 773d 0e9e 1bbe b8a0 6c3d
000003c0: be1e c8bd b517 82bd 3fb3 0bbd b0ec 033e
000003d0: e14f d0bc 9854 883d 4f4f 4fbd 62e2 a63c
000003e0: 9af2 66bd 6e18 58be 969f 933b 6e5e e3bc
000003f0: b93f 25bd f7a1 223e 54c6 e7bd 464f bebc
-0.13408157 0.1906314 0.09301586 -0.21783128 -0.08012148 -0.20088114 0.06452458 0.033547845
-0.0017240162 -0.14787705 -0.03676342 0.15176207 0.0566139 -0.03973214 -0.06784339 0.10841288
0.0064090253 0.06258531 0.047901258 0.09397644 0.10345519 0.026127355 -0.048377424 -0.08591025
0.073124416 -0.058552146 0.16910915 -0.054306854 0.013832607 -0.09460212 0.05125106 0.022660248
-0.03623253 -0.13713452 0.085826494 0.105662465 0.018789096 0.07205771 0.03858104 -0.09952823
-0.025101779 -0.06497418 -0.045506407 -0.04658154 0.016195504 0.030171461 -0.14601058 -0.021006295
-0.020275086 -0.0039066947 0.055686295 -0.13132498 -0.10072958 -0.096549876 -0.11334309 -0.12247125
-0.2017138 -0.10442082 -0.13275985 0.22078292 0.006886812 0.050370593 -0.040116534 -0.067467004
-0.0030838598 0.008401405 -0.10536229 -0.09692407 -0.23431987 -0.08462991 -0.16393653 0.0054396773
-0.17387389 -0.035967357 0.10800954 -0.09141108 -0.06722266 -0.02175184 0.10073818 0.0912398
0.036340866 0.08928604 0.10885174 -0.14143491 0.10708681 -0.071387686 0.14043395 -0.054259904
0.30288914 -0.196869 -0.19078577 -0.11470439 -0.23823883 -0.12510431 0.054017417 0.14578328
-0.15435307 0.009230321 -0.034048345 -0.028093876 -0.21114181 0.10838443 0.07554761 0.012648651
0.10467795 -0.20616442 -0.11609755 -0.05557258 -0.069498025 0.09326388 -0.04089621 -0.11504093
-0.07363323 -0.02955398 0.006299713 0.046428613 0.01026286 -0.05132641 -0.13107209 0.103388175
-0.17054455 -0.08707727 -0.06047479 0.031030502 0.09478148 0.21755472 -0.13119966 0.004599812
0.10489341 0.13435315 -0.04198902 0.12031986 0.06283232 -0.070623115 -0.054649252 -0.012147983
-0.15034685 -0.2520812 -0.11346431 -0.16139853 0.03584183 -0.14856808 -0.08356955 -0.026033942
-0.038775515 0.047156926 -0.11172648 -0.053039838 -0.013285664 -0.12410452 -0.11538696 0.06392181
-0.08245639 -0.012643502 0.013115223 0.04980462 -0.05760676 -0.080147594 -0.13459417 -0.13166124
0.049229864 0.22414301 0.015071431 -0.1259654 -0.00481331 -0.045330636 -0.037883904 -0.04005634
0.05505441 -0.15755418 0.00591889 -0.13260114 0.01669248 -0.03229222 -0.10165921 0.058060676
-0.115328245 -0.12889688 0.0038601966 -0.27595437 -0.13114543 0.041545868 0.0652225 0.1398875
0.07958179 0.124003224 0.03822832 -0.011962987 0.12824349 0.05948103 -0.034466766 -0.13508156
-0.07321058 0.063695274 0.03854788 0.01235036 -0.005226815 0.0752249 0.05129802 0.028121276
-0.107195035 -0.111479536 0.07226684 0.17191115 0.020000504 -0.12958245 0.03745803 -0.018234456
-0.15755038 0.0049993265 -0.14870769 -0.20275992 0.090124264 -0.13995038 0.07230298 -0.16670951
-0.13260397 -0.14646347 0.12490924 0.031098843 0.10274971 0.08779252 0.11375128 0.10282284
0.0052373754 -0.14781483 0.004451914 -0.09581241 -0.054151975 -0.06963763 0.055863544 0.034736812
-0.103705205 0.109013565 0.09788644 0.049877807 -0.1507925 0.060312677 -0.15197012 0.05777046
-0.097714886 -0.06352178 -0.03410649 0.12883258 -0.025428714 0.0665676 -0.050612744 0.02037162
-0.056383707 -0.21103069 0.004505108 -0.027754989 -0.040343974 0.15882097 -0.11317125 -0.02323116

network_body._body_endoder.seq_layers.2.bias f4 [128]
00000000: 207e c9bd 3011 343c 9453 e2bc b0ef 2bbd
00000010: 53f7 4c3c 6216 a13c ed5a 8bbd 9239 5dbd
00000020: 18d5 5abd 84f4 143c 98e0 943d fdea 733b
00000030: f22a 9cbd b534 79bb c121 f9bc ae3f 7a3d
00000040: 66a9 aebd f060 873d 1a12 abbb b0ea cebc
00000050: 96b6 923c 14a3 21bd 4318 8fbd 4395 3a3a
00000060: 6716 6d3d 039a d2bb 5faf c7bc 47ea 6bbc
00000070: 1356 3d3c 0c0f f33c af15 2e3c 6c00 d53c
00000080: 1337 a5bc fb3d 393b e701 bfbc 9e65 8f3c
00000090: ea63 b2bc 3ed0 2b3d 82d5 293d 3948 953c
000000a0: 828f c4bb aefe b93b 5d11 71bd 61c1 4a3d
000000b0: e72f b93d 9678 8fbd c367 123d f69a 483b
000000c0: 8bd7 89bd 3d2c d43c 5e9a 2abc af82 a3bd
000000d0: 9c28 aebd e3ba 3739 6b11 85bb ddf1 cd3a
000000e0: 2810 6bbd 101d 0dbc 69e5 573d 2fc7 89bd
000000f0: 1ed5 05be 1fdd 18bd 0cf1 0cbc 91c5 a9bc
00000100: 7ca0 8b3d 20bf a53c beb7 e73b ffb0 d4bc
00000110: 5da5 453d ad86 b03b 08a2 84bd 005a 1fbc
00000120: 6644 1ebd 016f 50bd cbea 9abc 271d b23b
00000130: 50ea aebc d156 92bd c662 48bd b067 c4bd
00000140: d9d0 b6bd 4d34 d3bd bf36 d53d 888a 0cbd
00000150: dd43 a5bc fc82 89bd d241 aebd f6fd 863d
00000160: 4901 cabc 5740 f9bc ae77 30bd 4ba5 e73c
00000170: 311e 9cbd 8b04 06bb d05d 9dbc e4f3 bd3b
00000180: 4784 47bc 980a 9fbc 2280 8fbd 75d4 adbc
00000190: 5ad7 bfbc f324 13bb 6ef9 a7bc 49b5 a5bc
000001a0: 0185 d73c 5fab 32bd 1fa4 95bc 052d bdbc
000001b0: b5c9 c1bd f34f 48bd f70b 8abc 0b81 3abd
000001c0: a263 0f3d 50c4 e0ba 07d4 483d cdad 693d
000001d0: f3c7 8cbd 29a4 4ebd d482 21bd 5695 c7bc
000001e0: 3352 203b 4fa5 7abb 601b e93b dc75 86bd
000001f0: 31c6 533d 5ffc 683c 4212 083d 39f4 913b
-0.098385096 0.010990426 -0.027627744 -0.04197663 0.012510139 0.019663993 -0.06804452 -0.05400998
-0.05342588 0.0090915 0.072694 0.0037218921 -0.07625379 -0.00380258 -0.030411603 0.061095886
-0.08528404 0.06610286 -0.0052206637 -0.025258392 0.01790933 -0.039462164 -0.069870494 0.00071175786
0.057882693 -0.006427051 -0.024375616 -0.014399118 0.011556166 0.02967026 0.010625287 0.026001178
-0.020167863 0.0028265703 -0.023316337 0.01750451 -0.021776158 0.041946642 0.041463383 0.018222915
-0.005998553 0.005676112 -0.05885445 0.049500827 0.0904234 -0.07005422 0.035743486 0.0030609942
-0.06730565 0.0259 -0.010412781 -0.0798391 -0.085038394 0.0001752186 -0.0040609143 0.001571234
-0.057388455 -0.008612886 0.052709017 -0.067274444 -0.13069579 -0.037320253 -0.008602392 -0.02072409
0.06817719 0.020232737 0.0070714643 -0.025963305 0.048253406 0.0053871484 -0.064762175 -0.0097260475
-0.03863945 -0.05088711 -0.018910786 0.005435604 -0.021351963 -0.07145465 -0.048922323 -0.09590089
-0.08926553 -0.1031271 0.104108326 -0.0343118 -0.020173961 -0.067144364 -0.08508648 0.06591408
-0.024658816 -0.030426187 -0.043082885 0.02827706 -0.07622946 -0.0020449485 -0.019209772 0.0057968963
-0.0121775335 -0.019414231 -0.07006861 -0.021219471 -0.023418117 -0.0022452443 -0.02050468 -0.020228045
0.026308538 -0.043620463 -0.018266736 -0.023092756 -0.09462301 -0.04890437 -0.016851408 -0.04553322
0.035007127 -0.001714835 0.04903033 0.057050515 -0.06874075 -0.050449524 -0.039431408 -0.024363201
0.0024463057 -0.0038245504 0.007113859 -0.06565449 0.051702682 0.014220326 0.033220537 0.0044541624

network_body._body_endoder.seq_layers.4.weight f4 [128, 128]
00000000: 0295 26bd 8c45 6a3d 46fb b0bd 18fd 35bd
00000010: b7a9 87bd 364f 48be 4123 13bd f6b3 903d
00000020: 51ab e7bd 0235 70be 012c 8ebd 1d64 bdbd
00000030: 8164 fcbc 4766 84bd 6877 37bc a7b4 c63c
00000040: a7d7 e6bb 4800 ddbc 9704 bcbc a3ed c33d
00000050: e3dd fabb 3e75 063e 3ef1 bbbd d28e 79be
00000060: 398a 21bd f42c 933d 23ac 2c3e 053f 9d3d
00000070: d494 26bd cc0f ddbd 14bd ebbd 6803 2ebd
00000080: 009e 5ebd 5de9 1f3d fbbb 67bd c753 b3bd
00000090: 6c85 aa3d a068 d63c 7ae6 eebc 9879 23bd
000000a0: be02 2abe f7c7 9e3d 4a2f 383d e382 41be
000000b0: a3e5 bbbb 26f0 723c 888e 333c 6f92 c63c
000000c0: c415 83bd 0767 25bc 45d4 f03c feab 9b3d
000000d0: 2085 25bd 2459 da3a 6b9e 833e 34c8 60be
000000e0: 09bd bcbc 7308 253d 0960 783d 4123 54be
000000f0: 392b 03be cfcb ccbd 9660 823d ab17 f33d
00000100: 26cd 503e 4d5b 513e edce 093e 7916 14be
00000110: c685 5f3d 011a 15bc b02c 52bd e69e 5dbd
00000120: de00 6a3a d37a 7dbe 3cea 153c 0198 853d
00000130: 94c9 d3bc fe0b a73d 135e 22be e593 debd
00000140: 1e54 58ba b98a 59be 60bb d73d ec25 32bd
00000150: 519f 95bd 5fb4 b23d 704b 283d 6049 cf3d
00000160: 45d5 1dbe 82ec 20be b84b b9bc 92c5 64be
00000170: afbd c2bd 0bb9 b53c 583c 6b3d b1f1 ac3c
00000180: c7a4 b5bd 2712 1b3d 1ca9 d43d d286 b1bd
00000190: 1780 c93d 2727 1bbe 0740 b6bd 3bc3 8a3d
000001a0: c78a d33c b1ac cd3d db7f 95be 5ecd c2bb
000001b0: 9742 a7bd 0128 acbd a34d 34be 0bb5 063e
000001c0: 5603 babc 87f6 2a3b e6b9 2bbe 6912 fdbc
000001d0: 095f b6bd 6d79 f1bd 418e 69bd 84be a93d
000001e0: 4613 b43d 3603 3dbe 187e cfbd f33b 6a3d
000001f0: 9ac0 913d 8815 30be 1833 fcbd 1dad 5a3c
00000200: 9ec8 783e c9f6 15bd 8671 d13c 89a4 b83d
00000210: eac8 04be 1068 ebbd c209 f93b 3e50 97bd
00000220: 2b56 a1bd 800a 8abe ca50 ff3c 3686 3f3d
00000230: 51a7 e03b ca91 7dbd dc64 ccbd d982 893c
00000240: dfcc 0b3d 28d2 a43c eb57 66bc 9ad5 0d3e
00000250: 0e6d c9bd 1d92 2b3c 1c15 0bbe 4cf7 c6bd
00000260: 81e2 cebc 8c68 44be b2ea 32bd 596a 77bc
00000270: e41b 17be 8ce7 24bd 9255 e13b 02f9 d63c
00000280: 2ccc 0fbe 24ee 0a3d 655b f33c 8c29 c2bd
00000290: 5657 a0bc 512b a4bd badf 19be c655 bebd
000002a0: 76b6 3abd afd5 ecbd f981 2c3d e66c e33d
000002b0: 75fa ce3d 41b7 88bd f12f babc 8700 5ebe
000002c0: 5b1d 0abe 50f4 123e 0c98 65be 2cb9 e13c
000002d0: 0dce 86bd b56c 00bc 6dc2 9b3d 0085 1dbe
000002e0: 57be 38be 8609 24be a1b5 a5bc 09d8 26be
000002f0: aeba 9cbc 6718 abbe c3ee 02be fae0 f73d
00000300: 4df5 bebd e9ca 13be 3a13 6c3d c5ac 32be
00000310: 682b a63c d86f e0bd aa9c 5bbe 51dc 7ebd
00000320: 2a2e 90bd d4f0 943d b371 39bc 7c2e d83c
00000330: 9e01 1ebe 4f9a b3bd ade4 8cbe c2b6 dc3d
00000340: bd9a 243e b231 bbbd 53d8 193e 7f1b d8bd
00000350: cac9 41be 5ad6 01be d81e e1bd c381 0e3e
00000360: d3f3 4fbe cccf d53c a8dd 83be 6fc9 843d
00000370: 1dff 3dbd e25c 9abe 0183 4b3e 3ef6 04bd
00000380: 546b 6fbe a8a9 593d 8332 a43c a641 d0bd
00000390: 4ec7 5bbe e2ba 913d 7d80 e53d 19a4 5dbc
000003a0: 02dd 20bd be79 403e a075 4cbd 3a08 58bd
000003b0: e910 95bd 95d0 83bd 4627 3dbe 5e19 243d
000003c0: 0bc4 e2bd fc23 1c3c cf8c 55be 7b30 aabd
000003d0: 90cb cabc 0831 c63d 573a 073e 5803 e43d
000003e0: 6484 63bc a115 21be 8688 c8bd ae09 833e
000003f0: 623a ae3d 4dc3 8bbd f65f 3bbe 07c5 a1bc
-0.04066945 0.05719523 -0.086416766 -0.044430822 -0.066241674 -0.19561467 -0.035922293 0.07065575
-0.11311973 -0.23457721 -0.06941987 -0.09247611 -0.030809643 -0.0646482 -0.011197902 0.024256064
-0.0070447507 -0.026977673 -0.022951407 0.0956681 -0.0076558455 0.13130662 -0.09176873 -0.24370888
-0.03943846 0.071863085 0.1686254 0.07678036 -0.040669277 -0.10794029 -0.11510673 -0.042483717
-0.0543499 0.039040912 -0.056575757 -0.08756214 0.083262295 0.026172936 -0.029162634 -0.039910883
-0.16602609 0.07752984 0.044966973 -0.18897586 -0.005734162 0.014827764 0.010959275 0.024239747
-0.06400636 -0.010095364 0.029398093 0.07601164 -0.04041016 0.0016658646 0.257068 -0.21951371
-0.023039358 0.04029126 0.06063846 -0.20716573 -0.12809457 -0.09999811 0.063660786 0.11869749
0.20390758 0.20444985 0.13457842 -0.14461698 0.054570936 -0.009100438 -0.05131215 -0.054106615
0.0008926521 -0.24753885 0.009150084 0.06523133 -0.025852956 0.08156584 -0.15856199 -0.108680524
-0.00082522805 -0.21244325 0.10533786 -0.043493196 -0.07305778 0.08725809 0.041087568 0.10121417
-0.15413387 -0.1571522 -0.022619113 -0.22340992 -0.095088355 0.022182962 0.057430595 0.021111341
-0.088693194 0.03785911 0.103838176 -0.08668293 0.09838884 -0.15151654 -0.08898931 0.067755185
0.02582301 0.10042704 -0.29199108 -0.005944892 -0.08166998 -0.08406068 -0.17607741 0.13155
-0.022706669 0.0026086883 -0.16770133 -0.030892568 -0.08904845 -0.11790738 -0.05702043 0.08288291
0.087927386 -0.18458256 -0.10131472 0.05718608 0.07116814 -0.17195714 -0.12314433 0.0133469375
0.2429528 -0.036612306 0.025566828 0.090157576 -0.12967268 -0.11494458 0.00760004 -0.07388352
-0.07877763 -0.26961136 0.031166453 0.046758853 0.006855883 -0.061906613 -0.09980175 0.016786026
0.034130927 0.020119742 -0.014059047 0.13851014 -0.09835254 0.010471848 -0.13582271 -0.09715137
-0.02525449 -0.19180506 -0.043680854 -0.015101039 -0.14756733 -0.040259883 0.006876656 0.026241783
-0.14042729 0.033918515 0.029706666 -0.09480581 -0.019572895 -0.080160744 -0.15026751 -0.09293704
-0.045584165 -0.115641944 0.04211614 0.11104755 0.10106365 -0.06675578 -0.022727938 -0.21679889
-0.1348776 0.1435101 -0.22421283 0.027554117 -0.0658227 -0.007838418 0.07605443 -0.15382767
-0.18041359 -0.16019258 -0.020228209 -0.16293348 -0.019131985 -0.33417055 -0.12786393 0.12103458
-0.09324131 -0.14432873 0.057635523 -0.17448719 0.02028437 -0.109588325 -0.21446481 -0.06222183
-0.07040055 0.07272497 -0.011318612 0.026389353 -0.15430304 -0.087696664 -0.27518216 0.10777046
0.16074653 -0.09140338 0.15023927 -0.105521195 -0.18924633 -0.12679425 -0.10992211 0.13916688
-0.20307855 0.026100062 -0.25755048 0.06483733 -0.046385873 -0.3014899 0.19874193 -0.032461397
-0.23380786 0.053140312 0.020043617 -0.101687714 -0.21462747 0.07115723 0.11206148 -0.013527893
-0.03927327 0.18796441 -0.049916863 -0.05274222 -0.07278616 -0.06436268 -0.18472013 0.040063255
-0.110725485 0.009530064 -0.20854495 -0.08310028 -0.02475527 0.09677321 0.13205849 0.1113345
-0.013886545 -0.15730907 -0.09791665 0.25593323 0.085072294 -0.0682436 -0.18298325 -0.01974727

network_body._body_endoder.seq_layers.4.bias f4 [128]
00000000: e5a8 f4bc 343e fabb bb26 903c cd48 60bc
00000010: 96af 5a3d caf3 923c 1452 db3d 4326 413d
00000020: 1334 703c da68 c4bc 4329 ed3c df6c ca3c
00000030: 642d d83d 3639 0ebd f9a9 0abc 215f 923c
00000040: cbc4 2abc 996c 983c 872b 573a 568b 5f3d
00000050: 29a8 503d b094 683d 95a9 02bd bb69 363d
00000060: ceb2 6a3c 92fb a33b fdcd fe3c b038 743d
00000070: 9903 d13d 39e0 523d 631e 443d 1a36 743d
00000080: 715f d23b 771b b33d 6059 c03d 880c 64ba
00000090: d0c7 acbb 917f 123d f33f 353b 7bbb 9a3c
000000a0: 0622 7f3d 595b 393b f2f4 d33c a1f0 ea3c
000000b0: 58db 8a3d f9d2 1b3c 76ad 6e3d 188b d13b
000000c0: c112 2b3d 0f84 87bd febc ad3d 9709 bd3c
000000d0: 8997 d93c 2d0f acbc 1809 5abb 2c35 bf3d
000000e0: 93a3 333d f718 e83c 9b52 383d 21ce 1ebd
000000f0: 0110 6fbc 5f51 71bc 841e 55bd 2e4c a3bd
00000100: f7c3 3abd cff1 5b3d c709 983d 4d94 a73d
00000110: 3dd1 9ebc e9c8 92bd adb6 99bc 5183 013d
00000120: f19f 37bd 3b87 c2bc 175d 983d 7ce8 d0bb
00000130: 1505 a4bd abbc 36bc 2b93 be3c 1fa9 3abd
00000140: 3baa fcbc a220 99bc 4008 2f3b 9327 6e3d
00000150: 1f15 bf3d 25b5 773c b641 c93c 868b 9abc
00000160: 8613 2f3d 1892 6f3d d36b 7e3c 894b 9fbd
00000170: bc8e 7f3d 124d 153c 6a52 bdbc 03dc e5bb
00000180: c1e7 4a3c 4f4a ea3b 2fa5 813d 4bd5 a83d
00000190: f1ec be3c 238e 6a3d 3861 153c adef fc3c
000001a0: 9a0e 1abc 7aa8 0ebc cc99 3a3d 12e8 133d
000001b0: 72e7 983c abef d83c bcdb 003d 4624 243d
000001c0: d278 9b3b 9758 843c 5d89 163d 739a 503c
000001d0: 14b8 f6bc 445c 7c3d 990e 013d f516 53bd
000001e0: 64b9 3abd ba47 973d 6eba d63c 1c89 fabc
000001f0: d665 8b3d 1693 453d 88cd 96bc 79d5 523b
-0.029865691 -0.0076368097 0.017596593 -0.013689232 0.053390108 0.017938513 0.107090145 0.04715563
0.014660853 -0.023975778 0.02895034 0.024710117 0.105555326 -0.03472253 -0.008463376 0.017867627
-0.010422896 0.01860647 0.0008208085 0.05457624 0.05094162 0.056782424 -0.031900007 0.044534426
0.014324857 0.0050043548 0.031104082 0.059624374 0.10205764 0.051483367 0.04788054 0.059621908
0.006420069 0.08745473 0.09392047 -0.0008699377 -0.005272843 0.035766188 0.0027656525 0.018888226
0.062288307 0.0028283207 0.025873635 0.028679194 0.06780118 0.009510749 0.058270894 0.006394755
0.041765932 -0.06616985 0.08483313 0.023075862 0.026561515 -0.02100333 -0.003326958 0.093363136
0.04385717 0.028332217 0.045000654 -0.0387708 -0.014591218 -0.014728873 -0.052031055 -0.079735145
-0.045597043 0.053697404 0.0742374 0.08182583 -0.019386882 -0.07167227 -0.018763864 0.031619374
-0.044830266 -0.023746124 0.074396305 -0.0063753705 -0.08008782 -0.01115338 0.023263535 -0.045571443
-0.030842891 -0.018692318 0.0026707798 0.05814321 0.093302004 0.015118872 0.024567466 -0.018865358
0.04274323 0.058488935 0.015528637 -0.07778079 0.06239198 0.009112613 -0.023110587 -0.007014753
0.012384356 0.0071499716 0.063303344 0.082438074 0.023306342 0.05726446 0.009117417 0.030876005
-0.009402895 -0.00870716 0.04555683 0.03610999 0.01866505 0.02648147 0.031459555 0.040073656
0.0047446275 0.016155524 0.036752094 0.012732136 -0.030117072 0.06161143 0.031508062 -0.051535565
-0.04558696 0.07386728 0.026211943 -0.030582957 0.06806533 0.048235975 -0.018408552 0.0032170697

action_model._continuous_distribution.log_sigma f4 [1, 3]
00000000: 4084 6bbf c997 5fbf c0ba 5ebf
-0.9199867 -0.8734098 -0.8700371

action_model._continuous_distribution.mu.weight f4 [3, 128]
00000000: 1071 063a e4da 98bc 24c7 06bc f905 3e3c
00000010: edd3 933d 43d5 00bd 1465 a83d 6f01 c1bb
00000020: 4356 f73d 9ee8 2bbd 34df 12bd 950b a5bd
00000030: 7b27 e3bc 03b0 e83d 2f91 ba3d c8bf 653d
00000040: 9bf5 bfbc aa17 f5bd 92f7 dd3c 5fab f4bd
00000050: 3957 b5bd 29f4 fabd ec1d 833d 04b2 743d
00000060: 5bc4 9ebd e789 4abd edc8 b0bd e0cc 01be
00000070: bf0e 303d 3552 bb3d 4abb 353b 8f63 dabd
00000080: 09dc 733d 1405 923d c901 933c a88a 32bd
00000090: 43a3 db3d 3f8d d83d 34b0 173b 2f15 d9bd
000000a0: 1f74 2cbc d34f a33b f65c 9dbd 17e5 93bd
000000b0: 1785 103e 0bc5 b3bc b9e3 7fbc 2d88 62bd
000000c0: 9836 7f3d 1174 ac3d bc90 3a3d 3206 94bc
000000d0: 0e57 593d 7cd7 4b3d 7537 043c f19c 22bc
000000e0: b340 e73d a1da 2a3d 6192 0b3d 6163 c03c
000000f0: 8090 91bd e8f1 103d d803 8d3c 37ea cebb
00000100: 936d 833d b418 20bd e9c9 0cbd 6093 203e
00000110: 9567 823c bf5e 5e3d 26b6 db3d d2f4 0ebd
00000120: 0217 5d3c a1d9 ad3d 7dce ee3b 11bf 4fbd
00000130: 731e e43a fde9 0cbc 60b5 8abb 1e7d da3c
00000140: 8bbb 573d 8c0b 3ebd 5942 013d 42ed a33d
00000150: 34a8 4a3c e911 9bbd 29cb 1b3c 86ee 2a3d
00000160: 8139 8a3d 4f20 ad3d fdcd 813d 168e 763d
00000170: d119 313c 52ae 733b 2b5b 553d 54fb 9b3d
00000180: c3c0 013e 018b 8fbd a463 27be f8e2 d43c
00000190: 3234 e4bd c436 513d 96e0 2a3d ee2c ccbd
000001a0: 8cc0 333d 426e 7e3d 0c8f 71bd d069 c2bb
000001b0: 39a6 16bd 1322 cdbd bdbc 56bd da6e 803d
000001c0: 64cc 37bd 77c0 a2bd bae9 523d 331a 113c
000001d0: c9bb 00bd a854 c1bd 6304 05bd abc3 623c
000001e0: 0e3f 8dbc 1e78 8e3d 8005 b4bb edeb ba3d
000001f0: 781f 0bbe 0744 21be 222a 5f3d 46fa 85bd
00000200: bcfd fa3c bedf 323d 1cbb 853d 59aa 0e3e
00000210: 10ee c23d fb03 733d cf28 b6bd ab3d 063e
00000220: b33d 4cbd c77d 23bc a956 ad3d f4f0 a0bc
00000230: a0e0 f03d 4f78 6ebc 0f0d d23d 69ec 1abd
00000240: d337 87bd 3ecc d83d f485 b8bc 1d99 1a3d
00000250: 7021 883d bb1c d03c 1435 043d 2f0d 743d
00000260: 1da0 843d 6a52 163c 876c 503d 66de 683d
00000270: fa7c 113e d081 3ebd 3ee9 623d 5866 4d3d
00000280: a4c2 3dbd 79f9 f0bd fb14 99bd 5a06 4c3d
00000290: af6d c9bd 253b c53d d20b 943b 1c9b 04bd
000002a0: 012c a43c a96a 6f3d 264d 33bc 3484 2a3d
000002b0: 61d0 013d c2a2 a73d de00 e8bc e55f 97bc
000002c0: fca1 463e 7018 3cbd 948a b7bd 409f 183c
000002d0: d026 81bd 6b8a 64bd bd9b 8a3d 43b6 b6bd
000002e0: aa15 e63c 9a85 a4bd dcd7 8cbd 1345 41bc
000002f0: cde4 5b3b 23c2 4abd a61a 703c 564e 88bc
00000300: cde3 ffbc 93a5 79bd 657b 2d3e 2605 953d
00000310: 52c4 9fbd 3bc4 1e3c b79c 063d 9ffb ca3c
00000320: 1095 843b 95d7 463b dd1b a93d 8e6d 9f3d
00000330: fd66 233d 8e53 993d 076c 81bd 0d6d ecba
00000340: a6e5 7c3d b319 f2bd d1d7 2e3c 9884 42bc
00000350: cf96 dabd d9ac 96bc 0843 80bd eb4f 29bd
00000360: 49ea fdbd 14c1 a1bd 83bc c1bc 35c0 17bd
00000370: ae1b 58bd da4d 273b 2c3f ccbc e283 773d
00000380: 146b 943d 8389 983d ab4d 933d 86cf a1bd
00000390: 82e3 963c b574 d9bd 4886 fbbc a1e9 823b
000003a0: 17c0 22bd 1269 323c ca73 5f3d 3de9 c0bd
000003b0: 678e 1abd 7395 e03d f0be 00bd 2a39 cebd
000003c0: 3e1e 17bd 4c47 28bd 318a 5f3e 3651 54bb
000003d0: c786 343c de99 683c d887 933d 502a 4ebd
000003e0: 8671 84bc 93c6 f0bd 4a6b ab3c dbc3 8dbc
000003f0: a095 ebbc f26f 0f3d c575 da3d 50bd 9c3c
0.0005128542 -0.018659063 -0.00822619 0.011598104 0.07218156 -0.031453382 0.08222404 -0.0058900635
0.12077 -0.041969888 -0.035857394 -0.0805885 -0.027728787 0.113616966 0.09109723 0.0560911
-0.023432544 -0.11967404 0.02709559 -0.11946749 -0.08854527 -0.12253601 0.064021915 0.05974008
-0.077522956 -0.04944792 -0.086320736 -0.1267581 0.042982813 0.09146539 0.0027730041 -0.106635205
0.059536014 0.07129875 0.017945187 -0.043589264 0.10724499 0.105738156 0.0023145797 -0.105997436
-0.010525732 0.004983881 -0.076837465 -0.0722143 0.1411327 -0.021944543 -0.015618258 -0.05530565
0.062307924 0.084205754 0.045548186 -0.01806936 0.053061537 0.04976605 0.008069863 -0.009925113
0.11291637 0.041712407 0.034075145 0.023484888 -0.07107639 0.03538695 0.017213747 -0.0063145417
0.06417384 -0.03908606 -0.034372244 0.15681219 0.015918532 0.054289576 0.107281014 -0.034901448
0.013494255 0.08488775 0.007287799 -0.050719324 0.0017404094 -0.008600709 -0.0042330474 0.026670989
0.05266909 -0.04639773 0.031557415 0.08004238 0.012369204 -0.075717755 0.009508886 0.04173138
0.06749249 0.08453428 0.06338117 0.060194097 0.010809378 0.003718276 0.052088898 0.076162964
0.12671189 -0.07008935 -0.16346604 0.025987133 -0.11142768 0.05107762 0.041718088 -0.09969507
0.0438848 0.06211687 -0.05897431 -0.005933024 -0.036779616 -0.10016265 -0.05242609 0.06271143
-0.044872656 -0.07946866 0.05149243 0.008856344 -0.031429086 -0.09439975 -0.032474887 0.013840596
-0.01724198 0.06956504 -0.0054938197 0.091270305 -0.13586223 -0.15748607 0.05448354 -0.065418765
0.030638568 0.04367041 0.06529829 0.1393217 0.09518063 0.059329968 -0.08894502 0.13109462
-0.04986353 -0.009978718 0.08463795 -0.019646145 0.11761594 -0.014555051 0.10256397 -0.037823115
-0.066024445 0.10585831 -0.022524811 0.037743676 0.06647003 0.025404325 0.03227718 0.059582885
0.06475852 0.0091749225 0.05088475 0.05685272 0.14207831 -0.046510518 0.05539822 0.05014643
-0.046328202 -0.11766333 -0.07474705 0.049810745 -0.098353736 0.096304215 0.0045180107 -0.032374486
0.020040514 0.05845133 -0.010943687 0.041629985 0.031692866 0.081853405 -0.028320726 -0.018478343
0.1939773 -0.045921743 -0.089619786 0.009315312 -0.06306231 -0.05579607 0.06767986 -0.089214824
0.028086502 -0.08033295 -0.068771094 -0.011796254 0.0033553124 -0.04950155 0.014654791 -0.016638916
-0.031236554 -0.06094892 0.16941603 0.072763726 -0.07801117 0.00969034 0.0328643 0.024778185
0.00404609 0.00303409 0.082572676 0.07784568 0.03989314 0.0748664 -0.06319433 -0.0018037871
0.061742447 -0.11821308 0.010671572 -0.011872433 -0.10673296 -0.018392967 -0.06262785 -0.04133598
-0.12398202 -0.07898155 -0.02364946 -0.037048537 -0.052760772 0.002552858 -0.024932466 0.060428508
0.07246986 0.07448103 0.07192548 -0.0790091 0.018419031 -0.10617963 -0.030703679 0.003995136
-0.039733972 0.0108893085 0.054553784 -0.09419487 -0.03773346 0.10966005 -0.031432092 -0.10069497
-0.036894076 -0.04108362 0.2183006 -0.0032397038 0.011018462 0.014196841 0.072036445 -0.05033332
-0.016167413 -0.11756625 0.020925183 -0.017305305 -0.02875787 0.03501887 0.10666994 0.01913324

action_model._continuous_distribution.mu.bias f4 [3]
00000000: 373f e0bc 4941 843c e807 f33c
-0.027373893 0.016144412 0.029666856

64 f4 [26]
00000000: 9b6d fc3e 18b1 8e3e f0fc fc3e 9295 883e
00000010: 3b99 2a3e e8eb 3a3e e97f ff3e 0a38 9f3e
00000020: ad8a 803e 95ba 8b3e 61d0 e03e 5704 953e
00000030: deae c43e 4f3b a83e e45a b53e 1b40 8e3e
00000040: 556c 8b3e 24e2 723e 850a d33e 506e 183e
00000050: ef3f fd3e 51e4 813e 9662 6a3e 2f60 943d
00000060: 9b62 6a3e 3060 943d
0.49302372 0.27869487 0.49411726 0.26676613 0.16660015 0.18254054 0.49902275 0.31097442
0.251058 0.27290788 0.4390898 0.29104874 0.38414663 0.3285775 0.35420907 0.27783284
0.27231088 0.23719078 0.41218963 0.14885831 0.4946284 0.25369504 0.2288917 0.07244908
0.22889178 0.07244909

67 f4 [3]
00000000: 1643 0040 c453 0040 1c64 0040
2.0040946 2.0051126 2.0061102
